proprietary/odm/firmware/film_model.tflite (tflite, 198680 bytes, 10 tensors)

fc1/bias f4 [3]
00000000: cb14 703d 93e9 283e 4219 80be
0.05861358 0.16495351 -0.2501927

sequential/relu0/Relu;sequential/bn0/FusedBatchNormV3;ftr0/bias;sequential/ftr0/BiasAdd;sequential/ftr0/Conv2D f4 [24]
00000000: 3548 443e cc58 c63e 522d da3e ec0d 6b3e
00000010: a23c 4a3e 6e32 fe3d 04b3 93bd d824 3d3e
00000020: 61cf 9d3e 3b2f 29bd 2048 c7be 2d01 49be
00000030: 9e3e 21bd 6ceb 85bd 5221 043f 30bc c4be
00000040: f93b e83e 1d75 01bf c043 223f bb21 88be
00000050: 725b 1cbd 7665 ea3e bdcc c83e c777 9a3e
0.1916817 0.38739622 0.42612702 0.2295453 0.19749692 0.124119624 -0.07211879 0.18471086
0.3082228 -0.041304808 -0.38922215 -0.19629355 -0.039366357 -0.06539044 0.5161334 -0.38424826
0.45358256 -0.50569326 0.6338463 -0.26588234 -0.038173147 0.45780534 0.39218703 0.30169508

sequential/relu2/Relu;sequential/bn2/FusedBatchNormV3;ftr11/bias;sequential/ftr11/BiasAdd;sequential/ftr11/Conv2D f4 [48]
00000000: ced5 1fbf 1af9 c03e 7034 4ebc 1f20 613f
00000010: 5655 293f cdbc 85bf 0945 a63d 9667 e1be
00000020: 1147 6ebf 27e1 833f 4fed 483f 2979 95be
00000030: fe0e a23f eb09 933f a003 d33f 824f 793f
00000040: faa9 26c0 4a6d de3f 6464 58bf f344 33c0
00000050: a71d 873f 3119 fb3e b1d2 e63e f189 a9bf
00000060: 88f6 0740 6579 c3bf 88c7 93be 1d40 da3e
00000070: 209a 4dbe 6e0d c73d 3a75 0b3e cb14 cf3f
00000080: af97 8b3f 3d16 c0be 1fe6 0a3f 5a68 c63f
00000090: 8ad3 963e 7786 87be d551 0dc0 7d87 dc3e
000000a0: 7026 b1bd 8f04 9bbf 54f5 64be 5be8 ce3d
000000b0: ba00 7d3d f953 e1be 98ab f9be 3f7d 2bbf
-0.62435615 0.3769005 -0.012585744 0.8793964 0.6614584 -1.0448242 0.08118636 -0.44024342
-0.9307719 1.0303086 0.78487104 -0.29194 1.2660825 1.1487402 1.6485481 0.97386944
-2.6041245 1.7377102 -0.84528184 -2.8010833 1.0555924 0.49042657 0.4508262 -1.3245221
2.124422 -1.5271422 -0.28863168 0.4262704 -0.20078325 0.097193584 0.13618937 1.617822
1.0905665 -0.37516966 0.54257387 1.5500596 0.29458266 -0.26469776 -2.2081196 0.4307212
-0.086499095 -1.2110766 -0.2235921 0.10102912 0.06176827 -0.4400938 -0.48763728 -0.66987985

sequential/activation/Relu;sequential/batch_normalization/FusedBatchNormV3;ftr2/bias;sequential/ftr2/BiasAdd;sequential/ftr2/Conv2D f4 [96]
00000000: 864d 4e3e c402 be3e 66f0 8a3f a274 423f
00000010: e9ca 9b3f d5c3 8bbf 159f a33f 9072 7cbf
00000020: 1d1a 513f b892 8e3e 08bd 6f3a 898c 843e
00000030: 5610 06bf 3996 19be 3734 bcbf 68b9 5b3f
00000040: b610 1f3f 5b0b 01bf 46d5 923e a37a e43e
00000050: bae5 1dbf c5fd 863f 215a 6dbd a285 4ebf
00000060: 2504 953f 03bb 39bf 9f94 5bc0 e022 fbbe
00000070: ecd4 953f 30dc 843f 23aa 50c0 262e cdbe
00000080: ebf0 3c40 a21f 0b3f 697f 8bc0 5265 e03d
00000090: 94c8 9ebe 94df 733e 8ffb 293e cc10 a43f
000000a0: ba85 46bf fe9f a6bd b6e3 bcbf b4f9 0a3f
000000b0: 4a58 27c0 f5b2 243e 1b24 6fbf b9e6 8bbe
000000c0: 5ca7 8d3f db68 70be b2a2 573f 3a7e 39bf
000000d0: af9f 76be 351b c73e e310 1a3f cead adbe
000000e0: bffb 003f 88e1 80bd 25ba 193f b381 29be
000000f0: 3310 2dbf dc1f 4b3f 53c0 883e eda8 adbe
00000100: 9301 ca3f b31c b1be 228f b23e 0d9c 4ebd
00000110: 0aa2 c0be 1341 e03d c12c 44bf aa5b 8abf
00000120: 8782 353f f8db fdbe 7c66 0d3e a46f 90bf
00000130: eef1 00bf 4c07 323f ce33 7d3f e68c 903e
00000140: 8088 4ebf 89ca 5f3f 4c9a 0240 5d69 63bf
00000150: 2fab 053f bccf c1be 39f6 bb3f 3e81 1d3f
00000160: 18eb 87bd 6684 e13f f80b 5c3f 8ebc 423f
00000170: 0ce2 04c0 7f94 b93e 3f5b 8f3f b627 083e
0.2014676 0.37111485 1.0854614 0.7595922 1.2171298 -1.0919138 1.2782923 -0.9861231
0.8168047 0.27846313 0.00091452943 0.2588847 -0.52368677 -0.14998712 -1.4703435 0.8582978
0.62134874 -0.5040795 0.2867834 0.44624814 -0.6167866 1.0546194 -0.05794728 -0.8067266
1.164189 -0.7255098 -3.430946 -0.49050045 1.1705604 1.0379696 -3.2603843 -0.4007427
2.9522045 0.5434514 -4.359303 0.10956825 -0.31012404 0.23815757 0.16599868 1.2817626
-0.775478 -0.08135985 -1.4756992 0.54287267 -2.6147637 0.16083892 -0.9341447 -0.27324465
1.1066699 -0.23477499 0.8423263 -0.7245823 -0.24084352 0.38887945 0.6018202 -0.33921665
0.50384134 -0.06293017 0.6004966 -0.16553383 -0.67602843 0.7934549 0.26709232 -0.33917943
1.578173 -0.34592208 0.34874827 -0.05044179 -0.37623626 0.10949912 -0.7663079 -1.0809224
0.70902294 -0.49581885 0.13808626 -1.128407 -0.50369155 0.69542384 0.9890717 0.28232497
-0.8067703 0.8741842 2.0406675 -0.88832647 0.5221433 -0.378538 1.4684516 0.6152533
-0.066366374 1.761853 0.8595576 0.7606896 -2.0762968 0.36246106 1.1199721 0.13296399

sequential/activation_1/Relu;sequential/batch_normalization_1/FusedBatchNormV3;ftr3/bias;sequential/ftr3/BiasAdd;sequential/ftr3/Conv2D f4 [192]
00000000: 80e4 afbd e7aa cfbf 4300 99bf 913d 54bf
00000010: fcc8 38c0 1e94 f93f 20fe 56be e861 453e
00000020: 1c7f 34be 92fc c03f ac49 50be 630e c0bf
00000030: 6015 65c0 649b e23e 8a65 05c0 7855 f8bf
00000040: 3ecb 99bf 98bd bcbd d47b 7abf cc3b 86be
00000050: 1a2a cdbf 6e64 31c0 268d d9bf b8b8 153f
00000060: ca27 c7be 491a 7d3f fee7 1cbf 1b6d 29c0
00000070: 7899 a43f 0822 a23f 8012 683c dd0f 86bf
00000080: e014 9cbf 1e47 16bf d060 06c0 0414 bc3f
00000090: f7d2 3ebf 9cc1 5dc0 8e2d 0ebf 6a1f d3bf
000000a0: 4a6b 98be 3064 04be 441f 2fc0 c32c 1fc0
000000b0: 405c 913c 3694 e6bf a028 7cbd c2b6 44c0
000000c0: 805b b1bd a0f2 4e3f aa82 71bf b0d4 18be
000000d0: 0659 eebf 48c5 b13d bb60 473f 86d8 99bf
000000e0: 6083 b3be 0647 a03f adf2 06c0 1c9b b3be
000000f0: a668 40bf f8a8 52be f683 6a3f 6a8b cf3f
00000100: 9eea 31bf 08c3 c83e b0ac d33e 8098 89bd
00000110: b6e0 ec3e a263 84bf 09cc 15bf a880 49c0
00000120: d104 fdbf e03c 73be d82f debe 0826 6a3e
00000130: 207a 8d3f 2dc7 cabf 00a0 133d c071 413e
00000140: c54f a73f 14e0 0b3f d40f 3fbf 7294 52bf
00000150: b88c ba3f cf0c 8fbf ac0a 723f 981b 39bf
00000160: 7b05 5fc0 b389 51c0 5ebc aebf 50b7 fc3d
00000170: 8d04 cdbf a03b a6bf 2865 58c0 544e 03c0
00000180: 2f9c d8bf 24d3 88bf 80ee cfbc de7c 1bc0
00000190: 0cc6 b4be 6c7b e7be c836 f2bf 9f29 3bc0
000001a0: 30fa 9b3f e39b 94bf 9758 9cbf 8e4b 2c3f
000001b0: 097f 7b3f b2cf bebf 2779 a63e 628c e8bf
000001c0: 6a38 86be 3de4 f4bf b8cd 223e 4c7d b1be
000001d0: 04eb 0040 11f7 08c0 b419 a3be 2c62 903f
000001e0: 4d36 acbf a498 8b3f 580f 36be ec65 833e
000001f0: f088 8ebf 6077 953d 8d5d 43c0 6717 23c0
00000200: 252b f2bf a4c3 27c0 91e6 06c0 2b15 ac3f
00000210: f046 0fc0 c6b1 91bf 9086 79be da21 953f
00000220: 906c 73be 08ff 233e b0dc 6bbe 5ee0 0540
00000230: 21ba 6cbf 182b b1be e5e6 f7bf 6834 0cbd
00000240: 5f21 8d3f 1c11 0ebf 1c26 923f f2f7 223f
00000250: ac80 bd3f 48e7 d63e c9c7 55c0 a340 83bf
00000260: 5833 03bf 14b6 14be e0cc 14bd 901f 64bf
00000270: 620c 3abf 3351 643f 58e2 063e 5a2c d33f
00000280: e665 823f 8043 513d 0a8f b93f e59a b13f
00000290: f6ad 8ebf 4e5c 8e3f e6e6 40bf 1040 33bf
000002a0: 12fe f4bf 64c8 7a3f 49b2 1a3f 7610 56bf
000002b0: e0a9 54bd 3c45 abbf 91bb a0bf 1870 4f3f
000002c0: 0336 b73f 19b8 a7bf 165f 3fbf 4598 0cc0
000002d0: 3c85 a2be dee2 6f3f a17d cbbf 96a5 d2bf
000002e0: bc6b 323f 8682 0bc0 f5ea 1fc0 cabc 10c0
000002f0: 4555 b0bf 6010 43bf c04a 39c0 8558 03c0
-0.08588505 -1.622403 -1.1953205 -0.8290644 -2.887267 1.9498327 -0.20995378 0.1927563
-0.17626613 1.5077078 -0.20340604 -1.500439 -3.5794296 0.4425918 -2.0843225 -1.9401083
-1.201515 -0.0921585 -0.97845197 -0.26217496 -1.6028473 -2.7717547 -1.69962 0.58484983
-0.38897544 0.9886823 -0.6129149 -2.6472843 1.2859335 1.2666636 0.014164567 -1.0473591
-1.219387 -0.58702266 -2.099659 1.4693608 -0.74540657 -3.464942 -0.5553826 -1.6493962
-0.29769355 -0.12928843 -2.7362833 -2.487107 0.017744184 -1.801398 -0.06156218 -3.0736547
-0.0866003 0.80838966 -0.9434 -0.14924884 -1.8620918 0.086802065 0.77881974 -1.2019203
-0.3506117 1.2521675 -2.1085618 -0.35079277 -0.7515968 -0.20572269 0.91607606 1.6214421
-0.6949862 0.39211297 0.41342688 -0.0671854 0.4626519 -1.0342906 -0.5851446 -3.1484776
-1.9767095 -0.2375369 -0.43395877 0.2286607 1.1052895 -1.5842034 0.03604126 0.18891048
1.3071219 0.5463879 -0.74633527 -0.8225776 1.4574194 -1.1175784 0.94547534 -0.7230773
-3.4847095 -3.2740295 -1.3651235 0.123396516 -1.6017014 -1.2986946 -3.381174 -2.0516558
-1.6922663 -1.0689435 -0.02538228 -2.4294963 -0.35307348 -0.4521135 -1.8922968 -2.9244153
1.2185726 -1.1610073 -1.2214535 0.6730279 0.98240715 -1.4907134 0.32514307 -1.8167841
-0.26214916 -1.9132153 0.15898788 -0.34665906 2.0143442 -2.1400797 -0.31855547 1.127996
-1.3454071 1.0905957 -0.1777929 0.25663698 -1.113554 0.072981596 -3.052585 -2.5483034
-1.8919417 -2.621316 -2.1078227 1.344396 -2.2387047 -1.1382377 -0.24367738 1.1650956
-0.23771882 0.16015255 -0.23033404 2.0918193 -0.9247151 -0.3460319 -1.9367338 -0.034229666
1.1025809 -0.55494857 1.141788 0.63659585 1.4804893 0.4197333 -3.340319 -1.02541
-0.5125022 -0.14522582 -0.036328197 -0.8911066 -0.72675145 0.891864 0.13172281 1.649791
1.0187347 0.051089764 1.4496777 1.3875395 -1.1146839 1.1121919 -0.75352323 -0.70019627
-1.9140036 0.9796202 0.6042829 -0.8361887 -0.051919818 -1.3380504 -1.2557241 0.81030416
1.4313358 -1.3103057 -0.74754465 -2.1967938 -0.31742275 0.93705547 -1.5897714 -1.6456783
0.6969564 -2.1798415 -2.4987156 -2.2615228 -1.3776022 -0.7619686 -2.8951874 -2.0522778

sequential/fc1/MatMul f4 [3, 192]
00000000: 15b1 cb3f 72b2 c63f 3afa b83f 7a20 babf
00000010: e4b5 cb3f 4f33 74bf 3dc2 84bf e35c c73f
00000020: ac4c a53f fc6b 91bf 1d7f acbf b1e3 423f
00000030: 48b6 2840 2c1b 1fbf eedc ff3f 7d44 bb3f
00000040: 953c 84bf a7bf 82be 9d85 acbf 9235 03be
00000050: 231a 273f c741 0240 ce44 dd3f b9d5 0b3f
00000060: 4a84 d2bf 5d1e d73d b7df 4fbf 8675 403f
00000070: 84ca 83bf 8233 963f 785c aa3e 4d30 9abf
00000080: e4dd 8e3f 0722 c0bf a4ff e33f b412 b7bf
00000090: 9ef4 c3bf b9ea 4e40 642c 93bf cfc3 ca3e
000000a0: 3133 9c3f 62d7 2f3e fae4 b13f 5e89 a03f
000000b0: 33d4 b1bf f5e6 293f 0903 e5bf ee48 fb3f
000000c0: c4dc 91bf bb8f 58bf 7ae9 aa3f 446f dfbf
000000d0: dfb0 9d3f b820 a4bf 9c4b b4bf 9df0 d73f
000000e0: 123c 16bf 865f 76bf 5584 1c3f cda2 acbf
000000f0: d12c b63f 3724 2abe 263e 0e3f 2be8 c3bf
00000100: 04a0 713f 2e23 d43f d939 c73f 9c1b febf
00000110: d131 d1bf e193 e6be 7cab 243f 4271 e03f
00000120: 1a5b 193f a7ed 5bbf 5359 26bf 7c15 afbf
00000130: 2f62 2abf 2b45 0a3f 156f 9a3f d7b9 af3f
00000140: 3408 b4bf da0c a63f cb83 aebf 2894 ac3f
00000150: dc71 abbf d4c7 c83e 161d 793f 4ebd 9d3d
00000160: 3e13 4440 9ab5 1440 ec63 df3e 6974 a2be
00000170: 36a1 a23e e1c6 043f f729 f63f 7d03 d13f
00000180: bbb6 573f 8c94 703f 1fcd 07bf 5783 d63f
00000190: c059 06be b6ee d3bf ca8c 2c3d c5f1 0240
000001a0: 5043 95bf d031 353e dce1 e73e e73e 6f3f
000001b0: 7fea 56bf 7aeb 2b3f f912 04c0 670d 8a3f
000001c0: 7960 40bf 07e2 403f e430 acbf 62ed 963f
000001d0: 293b 8fbf cd8e 7f3f 7d78 bbbf 11f1 ac3e
000001e0: 8780 163f 60ef 60bf 2f20 b6bf 887d 4bbf
000001f0: e119 a6bf 0f4c 6b3f 1c05 8d3f 5808 0740
00000200: 6bfd 253f c366 b43f 5666 b63f 81df b2bf
00000210: bdf3 8fbf b007 a1bf 9c79 e2bd a936 b23f
00000220: a68e b33f aed4 bbbf a7ea db3f 0008 a93f
00000230: 49c2 f23e 2c82 ba3f c346 f23f 10c0 e5bf
00000240: 9180 38bf c8b5 f9bf ad39 65bf 9dd6 1f3d
00000250: b79f a33f e2ff 90be 8360 2940 aef3 c3bf
00000260: 7ffe 5abf f33c c7bf de74 f1bf c4bb b13f
00000270: eec1 81bf 0f10 b0bf 8496 bebf 3667 78bf
00000280: be44 66bf 60a2 9b3f 51ea 7ebf 32b4 a7bf
00000290: 6687 a63e 1975 a6bf 211a a4bf a7c0 a0bd
000002a0: ab1a d23e 0513 9cbf adf1 a5bf 3aaa 69bf
000002b0: 83b9 e8bf c457 c23f 7cef 823f aa32 9cbf
000002c0: b2b3 96bf 4de4 41bf 96ab a13f 9922 933f
000002d0: a711 a3bf 36df 59bf f32c 293f 4498 a83e
000002e0: 0bbc 803e 950a a83f dd27 0640 a9a0 f03f
000002f0: 8600 6e3f 8049 d3be 5ee6 f13f 7b34 383f
00000300: 9561 c3bf ca2f 32bf 29dd d4be e841 073d
00000310: 8655 4abf 38bb 5dbf f874 b13f f19f afbf
00000320: 4522 8d3d a497 96be 754c 813f 8644 d63e
00000330: eeb5 f7bf fc6f 88bf 713b 8cbf 8d70 9fbe
00000340: 7adc d73e 07d0 b43f 322c 2abe d583 cfbf
00000350: 8f48 c43e ed1a dcbf 2ffb f2be 45aa a23e
00000360: 55ab a03e 7161 94bf 51a7 8f3f e62c 263f
00000370: 88fc 31bf e62e 94be ef20 4f3f acf0 9ebe
00000380: bd36 153e 8916 b93d 3979 7abf 8f43 7fbe
00000390: 5303 a53f a99a 2ac0 0d9e c7be 5e70 103f
000003a0: 9309 013d f744 edbf 6384 0bc0 c869 05bf
000003b0: 5d2e c33f 4b42 0f3f 574e b73f d610 3bc0
000003c0: 7fa0 9a3f b6ad 89bf ec1b 13be 16b4 863f
000003d0: 17cf a6bd 6141 683f 2022 16bf 589d 1ebf
000003e0: e7c3 a5bf 4450 67bf 2a75 393f 9f13 bfbd
000003f0: 01df 7ebf b622 fbbf ebb2 793f b0fb 213e
1.5913416 1.5523207 1.4451363 -1.4541161 1.5914884 -0.9539079 -1.0371777 1.5575222
1.2914023 -1.1361079 -1.3476292 0.7612868 2.6361256 -0.62150836 1.9989297 1.4630276
-1.0330988 -0.25536844 -1.3478276 -0.12813404 0.65274256 2.0352647 1.7286623 0.5462299
-1.6446621 0.10503838 -0.81200737 0.75179327 -1.0296178 1.1734469 0.33273673 -1.204599
1.1161466 -1.5010384 1.781239 -1.4302583 -1.5309026 3.2330763 -1.1497922 0.39602515
1.2203122 0.17172006 1.3898003 1.2541921 -1.3892883 0.6636804 -1.7891551 1.9631631
-1.1395497 -0.84594315 1.3352501 -1.745583 1.2319602 -1.2822485 -1.4085574 1.6870304
-0.5868541 -0.9623951 0.6113942 -1.3487183 1.4232427 -0.16615377 0.5556358 -1.5305227
0.9438479 1.6573236 1.5564529 -1.9852176 -1.6343328 -0.45034698 0.64324164 1.7534564
0.59904635 -0.85909504 -0.6498005 -1.3678432 -0.66556066 0.5401179 1.206515 1.3728589
-1.4065003 1.2972672 -1.363397 1.3482714 -1.3394122 0.39214957 0.97310007 0.07702123
3.0636744 2.323584 0.43630922 -0.3172944 0.3176362 0.51865965 1.9231557 1.632919
0.842632 0.93976665 -0.53047365 1.6758832 -0.13120174 -1.6557224 0.042126454 2.0460064
-1.1661167 0.17694783 0.45289505 0.93455356 -0.8395156 0.67156184 -2.063658 1.078534
-0.75147206 0.7534489 -1.345242 1.1791193 -1.1189929 0.9982727 -1.4646145 0.3377767
0.5878987 -0.8786526 -1.4228572 -0.7948842 -1.2976648 0.9191293 1.1017184 2.1098843
0.6483981 1.409386 1.424998 -1.3974458 -1.1246258 -1.2580471 -0.110583514 1.3922931
1.4027908 -1.467428 1.7180985 1.3205566 0.47413853 1.4570975 1.8927845 -1.7949238
-0.72071177 -1.95086 -0.8954113 0.03902303 1.2783116 -0.28320223 2.6465156 -1.530874
-0.8554458 -1.5565475 -1.886379 1.3885427 -1.0137308 -1.3754901 -1.4889684 -0.9703249
-0.8994864 1.2158928 -0.9957629 -1.3101866 0.32525176 -1.3004485 -1.2820474 -0.078492455
0.4103597 -1.2193304 -1.2964379 -0.9127537 -1.8181614 1.5183034 1.0229335 -1.2202961
-1.1773589 -0.75738984 1.2630489 1.1494933 -1.2739762 -0.8510622 0.6608421 0.3292867
0.25143465 1.3128229 2.096183 1.879903 0.9296955 -0.41267014 1.8898427 0.7195508
-1.5264155 -0.6960417 -0.41574982 0.033021837 -0.7903675 -0.866138 1.3863821 -1.3720685
0.06891302 -0.29412568 1.0101458 0.41849154 -1.9352396 -1.0659175 -1.095564 -0.31140557
0.42160398 1.4125985 -0.16618422 -1.6212107 0.38336608 -1.7195717 -0.47457263 0.3177053
0.31380716 -1.1592237 1.1222936 0.6491226 -0.6952596 -0.2894203 0.8090963 -0.31042993
0.14571662 0.09037501 -0.9784122 -0.24928115 1.289164 -2.6656897 -0.3898777 0.5642146
0.03150327 -1.8536671 -2.1799552 -0.52114534 1.5248524 0.5596053 1.4320782 -2.9229026
1.208023 -1.0756137 -0.1436612 1.0523708 -0.08144968 0.9072476 -0.5864582 -0.6195884
-1.295041 -0.9035685 0.72444403 -0.09329914 -0.99559027 -1.9619968 0.9753863 0.15818667

sequential/ftr0/Conv2D f4 [24, 5, 5, 1]
00000000: 6f35 ce38 f500 d3ba ee7e f53a 9b59 1d3b
00000010: dcf4 30ba 67ef 813b 9ffe 9e3a bce6 f5ba
00000020: c0a0 37bb d5e9 cbb8 1bd7 40bb 4a65 40bb
00000030: f8c8 d1ba 5aea 843a 14eb 99bb a304 ec3a
00000040: a7bf 853b e907 15ba 500a cebb 11e5 26bc
00000050: 74c6 65ba 1581 a83a c43e 2fbb 0b4c 08bc
00000060: a6ed 3dbc fc0f edb9 d77b 5bb9 dca5 033b
00000070: a26b cbbb 3990 0f3b 3ee7 a239 04c1 753b
00000080: 830a f13a 7a3d 5cbc 7350 a6ba 140e 613b
00000090: 9159 08bc f83f 18bc 0e52 253b 8e52 433a
000000a0: 33d5 64bb c65d 20bc a537 63bb e91c 76ba
000000b0: 927b 4c3a b07c cfba 69fd 56bc d326 09ba
000000c0: d654 f03a 5e2b 2039 32f0 083b 680a 693a
000000d0: fe6f 78ba e777 8a3b 2335 74bc 9956 053a
000000e0: 15e1 0bbc af05 9c3b c94f c939 e9fd 53bc
000000f0: faee a6ba 6178 bd3b c8bc de39 324c afbb
00000100: db69 993b d182 cabb 470a 2dbc 70bc 51bb
00000110: 0f79 c33b fd75 eeba f634 dd3a 1e4b 70bc
00000120: 4478 d33a 056f aab9 c30f b739 3af2 11ba
00000130: 3314 373b 19a1 7d3a c7bc 0dbc 9b63 7dbc
00000140: 30e4 ad39 c578 5a39 beb3 09bc b8cb 2abb
00000150: 9c8b 90bb 1cca 5b3b b989 f7bb 67d1 4dbc
00000160: 96de f2ba 0c32 bcbb da50 08bb e4c8 6c3b
00000170: 4a50 623b 5deb 613b 5222 873a c393 aa3a
00000180: c029 86ba 29bd 8039 cffe fab9 da32 d7ba
00000190: 330e 27bc c54f c93b d8b4 04bb 6f75 6f3b
000001a0: d2db bbba 7b1a 1fbc f90f a9ba 0179 b1ba
000001b0: d202 543b f5fd 17bc 0960 05bc 1124 b7ba
000001c0: 5dfc d93b 2a5e 06bc 3ebd 7cb9 c5f0 f23b
000001d0: 4780 c23a 9fd3 c539 ba2d b3ba 0f29 ba3b
000001e0: 7391 42bb e3a5 523b a21f cebb 7620 aa3b
000001f0: 98cb a8bb 4375 ee3a b790 f23b d669 10bc
00000200: 3042 bbba d6bf 7f3b 4ba1 2fbc 6b0d 05ba
00000210: ff2f 523b 8964 e5bb 2c6a bebb c35f a53b
00000220: a6c2 10bc b3ef 713a e57d 013c 55a4 08bc
00000230: eb0e 8b3a 9cd9 8a3b ecb7 eebb 54d3 ac3b
00000240: 16aa 87bb 9e60 41bb a0af 953a 798e 30bc
00000250: 9384 3cba ce68 9339 44fc aeb9 2915 333b
00000260: 8040 93bb 77ff cebb 9593 19b9 24bb c53b
00000270: 322d e7ba a3c8 38bc b50e 6b3b 7b3d ce3a
00000280: 7e8e 3bbc 9047 5235 e010 87bb a981 ecba
00000290: 53f4 b43a e1e8 62ba 56ec 013c 5b99 b43b
000002a0: 6355 8bbc 487f ed3a dee8 6ebb b338 2abb
000002b0: bba7 82ba 4d9d 6e3b ff83 4abb 7bbd b7bb
000002c0: 75db 83ba 2de2 e5ba 0151 82b9 02c6 97bb
000002d0: 762a d4bb df29 ddb9 caa3 773b e6d7 a8b8
000002e0: 012d 07bb 6eeb bcbb f3ef a9ba ca29 ddba
000002f0: f79e 223b 13ae 333b f592 ffbb cbff 2339
00000300: 7ff3 7fbc 946b 753b 9b37 cf39 74e9 913b
00000310: be4a 8b3b baf7 aa3a 6925 fbbb 2c28 b7bb
00000320: 28a6 87bc d05e b43b 83bf 20bb d926 363b
00000330: 96db 40bb c240 09b8 27b6 25bc e32c 853b
00000340: 64bf 03bc 8a5b bf3a 9a2f 8f3b 2b04 3ebb
00000350: 23e6 bf3b 990f c939 0731 18bc 4426 3e39
00000360: e9dd 013a b3af 033a 236b eaba ec76 c73b
00000370: f103 123b 278d bbbc 8bc9 f43b d013 44bb
00000380: 34d2 ffba f50a 243a 1018 e4ba e114 373b
00000390: f9c3 04bc 5c56 b5bb b561 d1bb 928b e0bb
000003a0: e9d1 5c3b 9329 3a3c a1cc aa3b 69ac 123c
000003b0: 22e1 2d3c fd88 20bb ba66 80bb cb19 61bb
000003c0: 957f 23bb ef3f 23bc 3afe b03b 2f45 acbc
000003d0: 533a 953b e88c d1bb ba30 0b3c 35f8 19bb
000003e0: f5a5 803b c71e 2039 1e9d b6ba 01ea a1bb
000003f0: 08e4 1cbb 1437 593b b428 233b ce37 de3a
9.832798e-05 -0.0016098308 0.0018729845 0.0024009708 -0.0006750354 0.0039653066 0.0012130326 -0.0018760781
-0.0028019398 -9.723349e-05 -0.0029425088 -0.0029357248 -0.0016005328 0.0010140643 -0.004697213 0.0018006753
0.0040816846 -0.00056850776 -0.0062878504 -0.01018645 -0.00087652286 0.0012855852 -0.0026740292 -0.008318911
-0.011592304 -0.00045216072 -0.00020931601 0.0020087874 -0.006207899 0.0021906032 0.00031071337 0.003749908
0.0018389974 -0.0134423915 -0.0012688771 0.0034340667 -0.008322136 -0.009292595 0.002522591 0.0007450961
-0.0034917116 -0.009787982 -0.0034670618 -0.0009388463 0.0007800396 -0.0015830006 -0.013121941 -0.00052319205
0.001833583 0.00015274945 0.002089512 0.0008889795 -0.00094771374 0.0042257193 -0.014905247 0.00050864514
-0.00853755 0.0047614197 0.00038397152 -0.012938955 -0.0012736015 0.0057821725 0.00042483793 -0.0053496594
0.0046818084 -0.0061801453 -0.010561532 -0.0032003187 0.005965359 -0.0018193122 0.0016876746 -0.014666347
0.0016133864 -0.00032507643 0.00034916223 -0.00055674056 0.0027935624 0.00096751895 -0.008650965 -0.015465642
0.00033167144 0.0002083509 -0.00840467 -0.0026061367 -0.004411174 0.0033537215 -0.0075542596 -0.012562132
-0.001852947 -0.0057432707 -0.0020800144 0.0036130482 0.003453272 0.0034472563 0.0010309911 0.0013014007
-0.0010235831 0.00024554998 -0.00047873563 -0.0016418353 -0.010196256 0.0061435425 -0.0020249393 0.0036538502
-0.0014332479 -0.009710903 -0.0012898437 -0.001354009 0.0032350314 -0.009276857 -0.008140572 -0.0013972541
0.0066523985 -0.008201161 -0.00024103091 0.007413956 0.0014839255 0.00037732438 -0.0013670244 0.005681164
-0.0029688745 0.0032142333 -0.006290392 0.005191858 -0.0051512234 0.0018192906 0.0074025053 -0.008814296
-0.0014286693 0.0039024255 -0.010719608 -0.0005075547 0.0032072065 -0.00700051 -0.0058109965 0.005046816
-0.00883547 0.00092291384 0.007903551 -0.008339961 0.0010609304 0.004237367 -0.007285109 0.0052742157
-0.004140149 -0.0029507051 0.0011420138 -0.010776156 -0.0007191386 0.0002811611 -0.0003337582 0.0027325845
-0.004493773 -0.006317075 -0.00014646196 0.006034272 -0.0017637371 -0.011278304 0.003586692 0.0015734875
-0.011447547 7.8335233e-07 -0.0041218847 -0.0018044013 0.0013805724 -0.00086559175 0.007929882 0.0055114455
-0.017008489 0.0018119598 -0.0036454718 -0.0025973737 -0.00099682 0.0036409677 -0.003090143 -0.0056073046
-0.001005991 -0.0017538719 -0.00024855885 -0.0046317587 -0.0064747883 -0.000421836 0.0037786835 -8.0510785e-05
-0.002062619 -0.00576537 -0.0012965187 -0.0016873416 0.0024813989 0.0027416989 -0.007799501 0.00015640182
-0.015622019 0.0037448155 0.00039523546 0.0044528786 0.0042508533 0.0013043799 -0.0076643717 -0.0055895057
-0.016558722 0.0055044666 -0.0024528212 0.002779415 -0.0029427758 -3.2723656e-05 -0.010114229 0.004064189
-0.008041237 0.0014599424 0.004369688 -0.0028994184 0.005856292 0.0003834933 -0.009289033 0.00018134067
0.00049540267 0.00050234346 -0.0017884712 0.0060871746 0.0022280181 -0.022894455 0.007470315 -0.0029919036
-0.0019517601 0.0006257736 -0.0017402191 0.0027936029 -0.008103364 -0.0055339765 -0.0063898214 -0.0068525756
0.0033694452 0.011362451 0.005212382 0.008952239 0.010612758 -0.0024495714 -0.003918496 -0.003434765
-0.002494787 -0.009963973 0.0054014 -0.021029083 0.004554072 -0.006394971 0.008495504 -0.002349389
0.0039260336 0.00015270255 -0.0013932323 -0.0049412255 -0.0023939628 0.0033144401 0.0024896087 0.0016953887

sequential/ftr11/Conv2D f4 [48, 3, 3, 24]
00000000: 727b afbe 5027 2a3e 9611 59be 0a90 3ebe
00000010: 8edb 6ebc a66f 933e 5520 0abf a175 8c3e
00000020: f5ba 56bf 8b24 253e 2f38 83be 0fdb 94be
00000030: f7f8 afbe c3ae fcbd e1fc 10be 06d4 403b
00000040: b59a fdbd 95e5 75be cda5 f93e f825 833d
00000050: 3583 ccbd b9fb ea3d 0459 323e 2a3b ac3e
00000060: 9172 973e 9364 c1bd 48be 83be ca32 9cbd
00000070: 0289 21bf c5a0 21be 3943 51be 96f0 09be
00000080: 0325 babe 2345 7d3d 4085 8c3e dced 5f3e
00000090: 736e 24bd a05e 173d 873e 4f3e 6ade ff3d
000000a0: 6a56 a9be d6b8 93bd 7e08 cc3e 26a0 9a3d
000000b0: fa30 953e e59d 773e 3622 83bd cf73 b93e
000000c0: 955d 92be a4a6 d1be fa70 543e baa2 bfbe
000000d0: 15df acbe aa9d 09be 4b37 e23c 6338 9ebe
000000e0: 7e17 7b3e 7286 9dbe e3d9 86be e347 fdbe
000000f0: 43ea efbd 93e6 98be 9a55 e83d a468 9dbd
00000100: 82f5 b5bd 333a 063d 0f7c eabe 85c5 513d
00000110: 3527 82bd 2b19 853e e177 a93c 8ecb d4bc
00000120: 5897 983e 048e 193e 645b 26bf 9001 d4bd
00000130: 25c1 6bbe f59e 283e bc95 933e de42 90be
00000140: d596 4bbe 779d 3ebd efa9 de3c a02d b2bd
00000150: 9984 2dbe 4900 80bd 9ef4 903e becc 08be
00000160: 98d3 163f 5a02 1f3e 13e0 e63d 7ebf 413e
00000170: c9fe c23c d0e8 8ebd 63cd 843d f24d 343e
00000180: 6553 1b3e 5bd5 92be 974f 75be ef0c 1ebe
00000190: f76d a9be 97fa 363c 6b85 893d 1187 9c3e
000001a0: 027f 2dbe c57d 9a3d 89e3 e4be 533a 15be
000001b0: fb3e b53e 97ab 663e a93a 8f3e a35e 3dbd
000001c0: 42b2 0fbf 832a 0cba 6ae5 223f fa55 e3be
000001d0: fda7 b2be 300b 623d 2eb2 543d aa9d a3be
000001e0: 0b96 95be 750a 743e 259f bf3e 0411 863d
000001f0: ac35 823e e0ee d9bd 7a53 813d 0c87 d93c
00000200: ef71 3b3e b449 093e 63b4 573e 91ec b9be
00000210: 72a9 d6bd 9a1d 2bbf b247 b43e ba68 33bd
00000220: 5e59 b8be 67c1 863e 4fa8 c6be f23f 7e3e
00000230: 19c7 e23d 938d 113e 4b89 d53e 192f 423d
00000240: 717a 83be 0ed7 923e 838f 04bf 1025 d53d
00000250: 229c 5fbc 1496 813b e4bb e33d 78ec 883c
00000260: 71f9 e63e dc0f c33e e981 893e 870a 733a
00000270: 4ac7 76bc 2abd 143e ffda 413e b670 f1be
00000280: 7ba2 9f3d 4af2 17be 91c5 b93e a846 73be
00000290: 207d 133d 8f3a 573e 5bae dc3d 3d4a 813e
000002a0: 93df 9e3c d670 b6be bd33 0b3e 73a5 e6be
000002b0: 1433 92bd 33d9 eb3c 3e11 26be ef02 383e
000002c0: d2d1 debe 5988 1bbf 7ba9 03bf 39ca a0bd
000002d0: 0c4e 77be 7416 37be 408d f93d a15c 443e
000002e0: 1f95 b83d c767 923e a3ac 9bbd 1cc3 b4be
000002f0: 1124 dbbe 3775 7d3e bd15 0bbe 48d5 76bd
00000300: 0f9c c939 38f6 293e d43d 79bb 16b0 12be
00000310: b3dc 9ebd d521 02bc 8636 8bbe 1f25 abbd
00000320: 1dda 113f c35a 923d 161a f6bc f505 1a3d
00000330: d003 633c a3cd 9fbd 5dee b43d eaee 13bf
00000340: b5f7 b33d bfe8 863e a672 97bd c27a 95be
00000350: 97ed 9dbd e2f8 88be 0ccc 8c3d b6b5 c3bd
00000360: 9f2b 8abd 6aff 9dbe ab39 94bd af8d 00be
00000370: 7ad5 5a3d 0917 973d cab7 323f 732a 163f
00000380: 9e3b de3c bd8a 663e 9810 ac3d 6387 7d3d
00000390: 0f65 42be 9da0 f9bd 5ac4 973e eaaa 7dbe
000003a0: f632 8bbe 9fe2 81bd 1bb0 9c3e 6f6c 823d
000003b0: 45ad 3e3f 5bce bd3a 7574 013d 4610 6c3e
000003c0: bd47 723d a2df 51bc a130 c2be ffe6 cbbe
000003d0: 5cb4 c33e 905c aa3e dbf1 f73e c0d8 96be
000003e0: 7431 12be efd7 cebd 8cb3 ba3d 3661 ed3d
000003f0: 9a5a af3e 58b0 023f 0108 3b3d 73bc 8cbe
-0.3427387 0.16616559 -0.21198115 -0.18609634 -0.014578713 0.28796118 -0.53955585 0.27433494
-0.83879024 0.16127221 -0.25628802 -0.29073378 -0.34369633 -0.12338021 -0.14158966 0.002942325
-0.12383024 -0.2401336 0.48759308 0.06403726 -0.09985963 0.114737935 0.1741677 0.3363889
0.29579595 -0.09443011 -0.2573111 -0.07626875 -0.6309968 -0.15783985 -0.204358 -0.13470683
-0.36356363 0.061833512 0.27445412 0.2186808 -0.040144395 0.036955476 0.20238696 0.12493594
-0.3307374 -0.07212989 0.3985023 0.07550077 0.2913893 0.24181326 -0.064030096 0.36221167
-0.28587022 -0.4094745 0.20746222 -0.37428838 -0.33763948 -0.1343905 0.027614256 -0.30902395
0.2452068 -0.30766636 -0.2633811 -0.49468908 -0.11714604 -0.29863414 0.11344452 -0.07685974
-0.088847175 0.032770347 -0.45797774 0.05121376 -0.063551344 0.25995764 0.020687046 -0.025975969
0.29802966 0.14995581 -0.649832 -0.103518605 -0.23022898 0.16466887 0.28825176 -0.28176016
-0.19881757 -0.04653689 0.02718064 -0.087001085 -0.16945113 -0.062500544 0.28311628 -0.13359353
0.58916616 0.15528241 0.112732075 0.18920705 0.023803132 -0.06977999 0.06484487 0.17607859
0.15168531 -0.28678402 -0.23956142 -0.15434621 -0.3309171 0.011168144 0.067149006 0.30571797
-0.16942981 0.0754352 -0.44704846 -0.1457303 0.35399613 0.22526394 0.27974442 -0.04623283
-0.56131375 -0.0005346911 0.6363131 -0.44401532 -0.3489379 0.05518645 0.051927738 -0.31956226
-0.29216036 0.23832114 0.37426105 0.06546214 0.25431573 -0.10641265 0.0631475 0.026553653
0.18305181 0.13407022 0.21064906 -0.36313298 -0.10481538 -0.66842043 0.3521095 -0.043801047
-0.36005682 0.2631943 -0.38800284 0.2482908 0.11073131 0.14214163 0.4170631 0.047408197
-0.25679353 0.286797 -0.5178148 0.1040746 -0.013648065 0.0039546583 0.11119822 0.01671432
0.45112184 0.38098037 0.26856926 0.0009271283 -0.015062163 0.14525285 0.18931197 -0.47156304
0.077946626 -0.1483852 0.36283544 -0.23757422 0.036008 0.21018432 0.10775443 0.25251952
0.019393718 -0.35632962 0.13593955 -0.45048103 -0.07138649 0.028790092 -0.16217515 0.17969869
-0.43519455 -0.60754925 -0.5143048 -0.07851071 -0.24150866 -0.17879659 0.121851444 0.1917596
0.090128176 0.285948 -0.07601287 -0.35305107 -0.42800954 0.24751745 -0.13582511 -0.060261995
0.0003845398 0.16597831 -0.0038031237 -0.14324984 -0.07756939 -0.0079426365 -0.27190036 -0.0835669
0.5697344 0.07146218 -0.030041736 0.037603337 0.013855889 -0.07802894 0.08834527 -0.5778643
0.08787481 0.26349446 -0.07394914 -0.2919522 -0.07711332 -0.26752383 0.06874856 -0.09556143
-0.06746601 -0.30858928 -0.07237562 -0.12554048 0.053426243 0.073774405 0.6981169 0.5865852
0.027128037 0.22513862 0.084016025 0.061896693 -0.18983863 -0.12188838 0.29641992 -0.2477223
-0.27187318 -0.06342053 0.30603108 0.06368338 0.7448314 0.0014481054 0.031605203 0.23053083
0.059150446 -0.012809666 -0.37927726 -0.39824674 0.3822354 0.33273745 0.4842671 -0.29462242
-0.14276677 -0.1009978 0.09116277 0.11590807 0.3424881 0.5105033 0.04566193 -0.27487525

sequential/ftr2/Conv2D f4 [96, 2, 2, 48]
00000000: 79f5 84bd 69a7 95bd 1b0f 16be c094 033e
00000010: 3eff 943c cbab 1fbd 791f 27be 1018 c13d
00000020: 5880 5a3e 6cc3 e33c 4499 1c3d 71c7 12be
00000030: 5827 14be 420c 883e f6bb 1bbd 8139 a93d
00000040: 32e1 4ebe 411c 433e 955f a5bb 2264 78be
00000050: d646 cabd 4c89 bf3d 3d6b 0ebe c2c8 49bb
00000060: b0d1 cebd d923 27bc e262 6c3e b5de 13be
00000070: 78d4 11be 8eaa 99be b2db b5bd 9a76 6f3d
00000080: 58ba 16be 8c2d e4bc 4916 10bd 23dc 4cbd
00000090: 440a f73c 291b a23d b309 43be 9aa6 5c3e
000000a0: 484f 26be 0af2 143e 01de b83d 90b5 e53d
000000b0: 5946 64bd 8c21 42be 9476 1ebe c242 32be
000000c0: 33e4 9a3e e606 c43e c44f c4bd b2c4 453d
000000d0: 27ff 423d ee34 053e afb5 8e3d 64c3 febc
000000e0: b078 203d 2100 32be 8ed1 413d b6fc 8a3e
000000f0: d539 8f3c 359d 2fbe cf81 c5bd 89f5 203d
00000100: e1fa 3fbe 5902 82bd e88c 8dbc 1b12 7d3b
00000110: b49b 753d 8f4c e8bd e9ad 893d 88ff 7c3a
00000120: 7c12 5abe 7ba3 7bbe 2bdf 6a3d 2942 79be
00000130: 5f5e f13c 7e3a 26be 4997 cbbd e507 e13c
00000140: 23ce 9f3c ed68 d13d 898f 123e aad7 88bd
00000150: 1569 0b3e 39ca 463e d8c7 aa3d 3199 243e
00000160: 3731 2abe 66b0 55be 740b 263e e8e4 673e
00000170: 5436 19bc cba8 9c3e 8083 613e 62af d1be
00000180: 73b3 333e 2769 83bc 590b 843d aec5 8bbd
00000190: 9cf4 db3d d6c1 6cbe beca e6bd 1032 b4bd
000001a0: 2201 bd3e d3ee c8bd 4cf3 c3bd 43f1 9fbe
000001b0: 55ba 083d 2f4b f73c b9fb c8bb 411d abbd
000001c0: 083e 92bd e9ce 523d bbf1 2e3d 509f 16be
000001d0: cf95 33bd 4c19 dcbd ac6c a0bd f83c 0bbe
000001e0: f6ba d33c f307 e3bd 8c3c 1b3e 26bd 823d
000001f0: ea0f 113e 2f8c bbbd 1c90 00be 32be ea3d
00000200: 9190 723d 9100 9a3d 2041 d83c cd79 08bd
00000210: 1f37 b5be bfca fdbd 45f8 01be 349f 04bd
00000220: ea4e ddbd eb6a ae3d 9738 4e3c 4c20 debc
00000230: b6ff 283e e4ea 12be 53b9 f9bd f727 033e
00000240: 80e4 8a3d 10ab 0ebd 4c3e 70bd 5397 94be
00000250: 6e8e a9bc 6983 b9be 6a6d 5a3e f023 fc3c
00000260: a2be 9c3c 505e 2cbe 040f 9cbc 7ce3 173e
00000270: f334 f8bd 0043 e5bd adfc aabd 274e c8bc
00000280: 70b2 aa3d 55f1 d83d c6b3 0a3e a43c e53d
00000290: 2a2e 263d 7da9 f63d d82a a43c 38de fdbd
000002a0: 2323 95bc 49b6 51be bf43 aabd df6e 993d
000002b0: 3258 8fbc cf4f b4bd 4989 4fbd 2628 afbd
000002c0: 4c2f 893e 88ad 7e3e 55fc 4c3e 12e7 333d
000002d0: da07 79bd 4b05 58bc ffdb 943d 6c71 30be
000002e0: 7f6f 82bd 532f fdbc 3dad 52bc b09a c93d
000002f0: acfd 48be 44db 103e 86a0 fbbd 21c9 ecbe
00000300: 2e11 9c3e da51 acbd 49e0 ad3e 65a2 f73d
00000310: 7eb2 89b9 c52c 8cbe eedf 8f3c 6593 63be
00000320: df37 1e3e 270c 1f3e 947e aebd 68dc cebd
00000330: 433c 48bd eea5 7d3e 1cc7 323d 9a8e 99bd
00000340: 38d6 3dbd cedf 2ebe 3d33 4cbe 0fc4 84bd
00000350: 2017 2dbe 719f 97be d41d 8e3d 1b7e 77be
00000360: c0ee 2abe b79b 76be 9ed5 c9be c022 e63d
00000370: 0dcd 19bd 1222 ba3c a643 713e 3f02 1b3e
00000380: 0cd7 dd3c 9254 32be c6e6 083e 838b 90bd
00000390: 0756 89bb 8038 58be f6c9 853d 608e 663e
000003a0: 79fe 543e 2fc0 573e 4734 9e3e 1966 a03e
000003b0: 18da 413e eb55 29be 6c14 dabc 453a 583d
000003c0: ca3f 9f3e a498 e1bb 3483 64bd d283 1a3d
000003d0: d9a8 22be 1369 9abe 0740 103e 029e 473d
000003e0: f2f0 01bb 62d1 7f3d c82f 8d3d e837 483d
000003f0: aa7e 67be 949f b53c 2175 433e f7bb 003e
-0.06492133 -0.073073216 -0.146542 0.12849712 0.018188115 -0.038982194 -0.163206 0.09428418
0.21338022 0.027803145 0.038232103 -0.14333893 -0.14468133 0.26571852 -0.03802105 0.08262921
-0.20203093 0.19053747 -0.0050467947 -0.24256948 -0.09876792 0.09352359 -0.13908096 -0.0030789827
-0.100985885 -0.010201418 0.23084596 -0.14440425 -0.14241207 -0.30012935 -0.08879794 0.058462717
-0.14719522 -0.02785375 -0.035177503 -0.050014626 0.030156262 0.07915337 -0.19046669 0.21547928
-0.16241181 0.14545456 0.09026719 0.11216271 -0.05573115 -0.1895811 -0.15474921 -0.17408279
0.30252227 0.38286513 -0.095855266 0.048283286 0.047606613 0.13008472 0.06968247 -0.031099029
0.039177597 -0.17382862 0.047318988 0.27145928 0.017483631 -0.17149813 -0.096439 0.03929666
-0.18748046 -0.06348104 -0.017279103 0.0038615528 0.059962943 -0.113427274 0.06722624 0.0009651114
-0.21296114 -0.24574082 0.057341736 -0.24341644 0.029463945 -0.1623325 -0.09940965 0.027469585
0.019507473 0.10225091 0.14312567 -0.0668176 0.13614304 0.1941308 0.083388984 0.16074063
-0.16620336 -0.20868072 0.16215307 0.22645915 -0.009351332 0.3059753 0.2202282 -0.4095412
0.17548923 -0.016041351 0.06447477 -0.06824814 0.10740015 -0.23120818 -0.11269139 -0.08798611
0.36914927 -0.09811177 -0.095678896 -0.31238756 0.033380825 0.030187218 -0.0061335233 -0.08355189
-0.07140738 0.051466856 0.042711 -0.1470921 -0.04384404 -0.107470125 -0.078332275 -0.13597476
0.025845986 -0.110855006 0.15159816 0.063837335 0.14166227 -0.09157597 -0.12554973 0.11462058
0.0592199 0.07519639 0.026398242 -0.033319283 -0.35393617 -0.123921864 -0.12692364 -0.03237839
-0.10806067 0.08516487 0.012586734 -0.02711501 0.16503796 -0.14347416 -0.12193551 0.12808214
0.06781864 -0.034831107 -0.05865316 -0.290217 -0.020697799 -0.3623307 0.213308 0.030778855
0.01913387 -0.16832852 -0.019050129 0.14832872 -0.12119474 -0.1119442 -0.08348975 -0.024451328
0.083348155 0.105929054 0.1354514 0.11193207 0.04057137 0.12044046 0.02003996 -0.123959005
-0.018205231 -0.20479693 -0.08313703 0.0749185 -0.01749811 -0.08804285 -0.050668035 -0.085525796
0.26793897 0.24870884 0.20018132 0.043921538 -0.060798503 -0.013184856 0.072685234 -0.17230767
-0.063689224 -0.030906355 -0.012858686 0.098439574 -0.19628018 0.14146143 -0.12286477 -0.462472
0.30481857 -0.084140494 0.33960178 0.12091521 -0.00026263663 -0.27377906 0.017562833 -0.22224195
0.15451 0.1553198 -0.085202366 -0.10100633 -0.048885595 0.24770328 0.043646917 -0.07497902
-0.046346873 -0.17077562 -0.19941421 -0.06482708 -0.16903353 -0.29613832 0.06939283 -0.24169199
-0.16692638 -0.24082838 -0.3942079 0.11237097 -0.037549067 0.022721324 0.23560962 0.15137576
0.027080081 -0.17415074 0.13369283 -0.0705786 -0.0041911635 -0.21115303 0.065326616 0.22515249
0.20800199 0.21069406 0.3089926 0.31327894 0.18930852 -0.16536681 -0.026621066 0.052789945
0.31103355 -0.0068846513 -0.055789188 0.03772337 -0.15884723 -0.3015829 0.14086924 0.048734672
-0.0019827452 0.062455542 0.06893879 0.04888144 -0.22606912 0.02217082 0.1908765 0.12571703

sequential/ftr3/Conv2D f4 [192, 1, 1, 96]
00000000: 61f7 4abf e409 583f 3788 613f d235 b73e
00000010: d392 acbf 9b5b 053f f469 6cbe 8b2e 1c3f
00000020: ed2d 8b3e 9e27 d5be 7eaf c23e 57fd 9cbe
00000030: 7cae 6bbf a0a9 083f ec26 87bf 3ffd 04be
00000040: 8380 7e3f f0cc e0be 1fd0 a63f 4933 053f
00000050: 084d 82bf 5ed6 ea3e c15c 92bc 0b88 5b3e
00000060: d560 8cbf 0eaf 51bf ff25 c03e 1533 22bf
00000070: a180 1ebf db5c 1dbe e028 d53e 55e8 563b
00000080: f10c 49be 52b2 17bd 550f 1640 4333 b93f
00000090: c0d8 86bf fc29 563f c120 c3bd e2aa 933f
000000a0: bee0 d4be bd08 8f3d 0dd3 c63e 1525 b93e
000000b0: 2efe 0abf a682 383e 3e8d 2b3f 0fad 883f
000000c0: 15bd bebf eac1 2dbe 3daf 2c3f 2856 b6bf
000000d0: 9fba d13e 9857 873e c517 55bd 9e3c a33e
000000e0: 3017 0cbf 18c3 aa3e 8e78 a6bd 89a0 57bf
000000f0: cabb cf3e 2ea6 863f 23ff 303f 98f8 c9bf
00000100: ca70 6d3e 6920 223e b240 13bf 8d78 eebe
00000110: 23cb 2f3f 3496 3d3f 5c53 83bd dfe1 19be
00000120: 870c 5b3f a728 6abf 9328 6c3f e3cd 30bf
00000130: e8d6 43be 44c8 f7bf 90cb 493f fea2 8ebf
00000140: 40a8 a2be 507a b3be c29b 033f e46a 13bf
00000150: 5cba 4ebf 8d73 f5be a510 0bbd 7516 ea3e
00000160: ce9c 9ebf 100b fe3e a3a6 81bf 6aea ef3e
00000170: f189 24bf 5090 803f 28cd b1bf dff8 30bf
00000180: 747e 153f 3e45 91be 0a8a b6be 6a57 e0be
00000190: 0071 82be cfe5 d6be c366 8a3e 4120 773d
000001a0: 674b 223d eaa9 b53d 79e5 4e3f 0239 b33d
000001b0: b64b e3be 941a 613f 1d03 41bd 356e 1f3f
000001c0: 728f a7be 494e 253e 594f d93e a2a1 6d3f
000001d0: 16e8 183e 3f91 683f da9f 033f 0567 683e
000001e0: 1459 2ebf 8c41 d1bf 1ed2 123f 4f2f 63bc
000001f0: 3a77 3dbd 921b 95bf 02c7 e33e efea 973e
00000200: a75e 8abd d358 ed3e 2ce9 5840 7625 e7bd
00000210: 7bbb 553b 28e7 bcbd 0253 d93e fc7e 8c3f
00000220: 2d5f de3e f748 07be 5e8a c03e 2d78 043f
00000230: e7c9 3b3f d866 203f 12e2 d43e ec94 cd3f
00000240: 522e 1abf 7955 ee3d 8a80 39be 306b 9cbe
00000250: 0591 a63e 73d3 2dbf 4f27 9ebd e55c 933e
00000260: 85b0 ef3e 440b b73e 6c14 963e 3b88 df3d
00000270: 0ab4 283e 2a25 5abe 6f18 803f a3a0 5f3f
00000280: 2a1c df3e ad6d ca3d f5ec 8f3c 9714 8d3e
00000290: 5f6f 563e 9e3f 7cbe 3439 db3e 8985 bdbf
000002a0: 6398 603f aa1d c4bd 6a7e 163f 122b 503e
000002b0: 6422 c33e 8856 f7bf 51e3 8c3e f080 023f
000002c0: 848d 0a3e ab59 2abe 038a be3e 4123 d63e
000002d0: 6d6c 5dbf c10a 5cbf 53ff 41bf f4d9 b33e
000002e0: e5cb fbbf e3e7 4e3f 1e19 333f f7a8 003d
000002f0: 4732 edbe 08df f33e b5e3 27bf 4ca7 32bf
00000300: 96aa 413f 88a5 593e b4c9 b2bf 0c4b 1abe
00000310: 2bc0 71be 5a0c 52bf 1d63 9f3e 887f 3c3e
00000320: 2ed8 723f 43b5 d9be 0e75 513f 8dbc 90bc
00000330: 3790 3abf e2a0 533f 2036 363f f8e8 953e
00000340: 419a ebbf 965a 173f 24d2 c33e 1d17 fb3e
00000350: b6b8 0c3f c01d 4a3f 6ccf 453f 9bd0 083f
00000360: 7200 39bf a08a 50bf 4ef4 193f 01ee 363e
00000370: da6e 333d 6c38 febe 9360 e13d 07d6 20bf
00000380: a2e9 c9be 3791 433e edd2 4c40 1805 96bd
00000390: 9cea 683d 5b99 bcbd 7f6f c53d 84da 363f
000003a0: a020 9e3e 437f c0bd 2f50 b03d 6c18 d33d
000003b0: 96d7 fc3e f341 28bd 0d63 ca3e ff1e ea3f
000003c0: 98df 9bbe fa90 8f3d 14f2 63be 5ca5 623e
000003d0: 3b6e fb3d 4717 48bf dc1f 27bf fdac 723e
000003e0: 7de1 debe a1cf 063c 8f24 1e3d 462d 95be
000003f0: 34de 703e c8cb 173f 6738 6d3f ade6 983f
-0.7928372 0.8439009 0.8809847 0.3578325 -1.3482307 0.52092904 -0.23087293 0.6100852
0.27183476 -0.41631788 0.38024515 -0.30662033 -0.9206312 0.5338383 -1.0558753 -0.1298723
0.99414843 -0.43906355 1.3032264 0.5203138 -1.0179758 0.45866674 -0.017866494 0.21438615
-1.0967051 -0.8190774 0.3752899 -0.63359195 -0.6191502 -0.15367453 0.41632748 0.003279229
-0.19633843 -0.037035294 2.3446858 1.4468769 -1.0534897 0.83657813 -0.09527732 1.1536524
-0.41577715 0.069840886 0.38832894 0.36161104 -0.542941 0.18018588 0.67012393 1.0677813
-1.4901453 -0.16968504 0.6745489 -1.4245043 0.40962693 0.26434016 -0.05202462 0.31882185
-0.5472288 0.3335197 -0.08128463 -0.8422933 0.4057296 1.0519464 0.6913931 -1.577899
0.23187557 0.15832676 -0.5752059 -0.46576348 0.6866934 0.74057317 -0.06412384 -0.15027569
0.8556599 -0.9146828 0.9224941 -0.6906416 -0.19124949 -1.9357991 0.78826237 -1.1143491
-0.3176899 -0.35054255 0.5140954 -0.5758498 -0.8075311 -0.4793972 -0.03395142 0.45720258
-1.2391603 0.49617815 -1.0128978 0.4685853 -0.6427298 1.0044041 -1.3890734 -0.6912975
0.5839608 -0.2837314 -0.3565219 -0.43816692 -0.25476837 -0.41972205 0.27031526 0.060333494
0.03962269 0.08870299 0.808189 0.08751108 -0.443937 0.8793118 -0.04712211 0.6227754
-0.32726628 0.16143145 0.4244335 0.9282476 0.14932284 0.9084663 0.5141579 0.22695549
-0.6810467 -1.6348128 0.57351863 -0.01386626 -0.04625628 -1.1649039 0.44487768 0.29671428
-0.06756335 0.4635683 3.3892317 -0.11286442 0.0032612968 -0.09223777 0.42446142 1.0976253
0.43431988 -0.13211428 0.37605566 0.51745874 0.73354954 0.6265693 0.41578728 1.6061072
-0.6022693 0.11637396 -0.1811544 -0.30550528 0.32532516 -0.6790077 -0.07722341 0.2878181
0.4681436 0.35750782 0.29312456 0.10914656 0.1647493 -0.2130324 1.0007457 0.8735449
0.43576175 0.098842 0.017569045 0.2755477 0.20940922 -0.24633643 0.4281708 -1.4806377
0.87732524 -0.095759705 0.5878664 0.2032893 0.38112175 -1.9323282 0.2751718 0.50977993
0.13530546 -0.16635768 0.3721467 0.41823772 -0.8649357 -0.8595391 -0.7578022 0.35127223
-1.9671599 0.8082258 0.699602 0.031411137 -0.4632742 0.47631097 -0.6558183 -0.69786525
0.7565092 0.21254551 -1.3967805 -0.1506769 -0.23608463 -0.82050097 0.31130305 0.18408024
0.94861114 -0.42521104 0.81819236 -0.017668033 -0.72876304 0.8266736 0.7117634 0.29279304
-1.840645 0.591226 0.38246262 0.49041072 0.54969347 0.78951645 0.77269626 0.53443307
-0.72266304 -0.81461525 0.60138404 0.17864229 0.04380689 -0.4965242 0.11004748 -0.6282658
-0.3943606 0.19098364 3.200374 -0.0732519 0.056864366 -0.09208938 0.09640407 0.7142718
0.30884266 -0.09399273 0.08609044 0.103073925 0.4938323 -0.04107852 0.39528695 1.8290709
-0.30444026 0.07010074 -0.22260314 0.22133392 0.12276884 -0.7816052 -0.6528299 0.23698802
-0.4353141 0.0082282135 0.038609084 -0.29136103 0.23522264 0.5929532 0.9266419 1.1945397
