proprietary/odm/firmware/glove_model.tflite (tflite, 7340 bytes, 13 tensors)

fc1/bias f4 [2]
00000000: ec77 ba3e 1778 babe
0.36419618 -0.36419746

sequential/relu0/Relu;sequential/bn0/FusedBatchNormV3;ftr0/bias;sequential/ftr0/BiasAdd;sequential/ftr1/separable_conv2d/depthwise;sequential/ftr0/separable_conv2d f4 [8]
00000000: 8173 f23e dc99 043f 3218 bb3d 6b74 243f
00000010: 30a6 a33c 3059 953d c0ec 5dbe 5d6f fe3d
0.47353747 0.5179727 0.09135474 0.6424014 0.019976705 0.07292402 -0.21672344 0.124235846

sequential/relu1/Relu;sequential/bn1/FusedBatchNormV3;ftr1/bias;sequential/ftr1/BiasAdd;sequential/ftr2/separable_conv2d;sequential/ftr1/separable_conv2d f4 [16]
00000000: 528f df3e 5c04 603f eb8c 913f 8002 19ba
00000010: 1fdd ca3c e205 da3e cca3 1d3f a4d2 b33e
00000020: 84a1 673e 451d b0bf 8758 513f e299 f13d
00000030: d481 f53e b0eb b3bf d438 8a3f 3ae8 4dbe
0.43664032 0.8750665 1.137113 -0.00058368593 0.024763642 0.42582613 0.6157806 0.35121644
0.22620207 -1.3758932 0.81775707 0.11796929 0.47950613 -1.4056301 1.0798593 -0.20108119

sequential/activation/Relu;sequential/bn2/FusedBatchNormV3;ftr2/bias;sequential/ftr2/BiasAdd;sequential/ftr2/separable_conv2d f4 [16]
00000000: dc3f 2641 b21b a0c0 86a6 82c0 6043 ab3e
00000010: 40b9 2640 a031 e540 c080 623e e2c9 9540
00000020: ac83 d3c0 0042 b8bf 1c3f d940 0015 57bf
00000030: 0823 0f41 c057 cac0 a8ce 5bc0 6e96 9740
10.390591 -5.003381 -4.0828276 0.3344984 2.6050568 7.1623077 0.22119427 4.680894
-6.609823 -1.4395142 6.788954 -0.8401642 8.946053 -6.3232117 -3.4344883 4.737113

sequential/fc1/MatMul f4 [2, 16]
00000000: c4bf 1b40 e26c 89c0 1901 b0c0 7271 a1c0
00000010: a6f1 83c0 1d0e 9ac0 427e 48c0 4bb7 73c0
00000020: 34d7 5140 ec86 3ac0 4008 2c40 851c 82c0
00000030: ca48 3540 d13a 91c0 c2d4 8cc0 eff6 71c0
00000040: eb8d 33c0 575f 5340 e261 ad40 6880 a240
00000050: 80a1 8640 e57d 8340 197a 7840 b27a 8b40
00000060: 4fed 40c0 e89c 7840 b50e 31c0 cf30 8340
00000070: e526 4bc0 b6d1 9940 689c 8c40 b398 2d40
2.4335794 -4.2945414 -5.500134 -5.0450983 -4.123248 -4.814223 -3.1327062 -3.8080623
3.27876 -2.914485 2.6880035 -4.0659814 2.8325677 -4.5384297 -4.4009714 -3.7806966
-2.805537 3.302694 5.4181986 5.0781746 4.2072144 4.109118 3.8824522 4.3587275
-3.0144842 3.8845768 -2.7665226 4.099708 -3.174249 4.8068495 4.3940926 2.712445

sequential/ftr0/separable_conv2d/depthwise1 f4 [1, 3, 3, 1]
00000000: 4897 db3e 5a8c 873f 5625 90be d6df 6a3f
00000010: 7752 6a3f fb04 053f e3bd 85be f861 3b3f
00000020: 9a0c 683f
0.42888856 1.0589707 -0.28153485 0.91747797 0.9153208 0.51960725 -0.26121435 0.73196363
0.9064423

sequential/ftr0/separable_conv2d f4 [8, 1, 1, 1]
00000000: fdc4 abbb 70c9 b5bb e88d 8cbb 65bf 8f38
00000010: cd8f aa3b b91e 943b 8581 833b 94d2 8a3b
-0.0052419887 -0.005547695 -0.0042893775 6.8544214e-05 0.0052051307 0.004520264 0.0040132427 0.0042365286

sequential/ftr1/separable_conv2d/depthwise f4 [8]
00000000: 0000 0000 0000 0000 0000 0000 0000 0000
00000010: 0000 0000 0000 0000 0000 0000 0000 0000
0.0 0.0 0.0 0.0 0.0 0.0 0.0 0.0

sequential/ftr1/separable_conv2d/depthwise1 f4 [1, 3, 3, 8]
00000000: 7eb6 773e baf3 56bf fd49 2dbe 1bea a2bd
00000010: 9c04 a53d 8ff2 183d 177e 95be 6a29 9fbf
00000020: 5425 a2bd 7124 8b3f 4ec0 cbbe 4935 673e
00000030: a6f8 ab3e 58a6 35bf d1e9 bcbf 411c 753f
00000040: 4af2 223e 7ca6 2fbe 98a9 06bf 1098 4ebd
00000050: eebf 1cbe 2e01 bb3e d0ed aabd 1362 fe3d
00000060: 10ed 663f 8b27 503f 2591 b63e 13a9 87bf
00000070: f7b8 8b3f 6a59 28bf e292 44be ccf2 a83e
00000080: 8b35 babf a928 f43e d462 3e3d edff 23bd
00000090: 7c9d 9e3f 00ad c73f 6a51 80bf bdc1 133f
000000a0: 39d0 c73e d98a 3b3d 61fb 59bf b52c 363f
000000b0: e10e 19be 985d 7d3e ffb4 8bbf beaf 22bf
000000c0: f7e0 e0be 2677 babd 7fc0 023f 73fe 00bf
000000d0: 12dd 4d3e eee4 053f 629c f13d 6665 0bbd
000000e0: c87e c63e ef62 44bf b70c 8fbf 682b 723f
000000f0: 2547 2f3f c69e 8fbe 63de 58be 73f1 90bf
00000100: dfa3 30bd 38e9 7b3f 03db b23e 896d 1cbf
00000110: 206d c23e 0e80 3fbf 3a1a c1be 7b22 5b3e
0.24190709 -0.8396565 -0.16922756 -0.07954808 0.0805752 0.037340697 -0.2919776 -1.2434514
-0.07917276 1.0870496 -0.39795154 0.2257892 0.3358814 -0.70956945 -1.4758855 0.9574624
0.15912738 -0.17153352 -0.5260253 -0.050437987 -0.1530759 0.36524338 -0.083461404 0.1242105
0.9020548 0.8131034 0.3565761 -1.0598472 1.0915822 -0.65761435 -0.19196656 0.3299774
-1.454759 0.4768727 0.04648097 -0.04003899 1.239181 1.559967 -1.0024846 0.57717496
0.3902605 0.045786712 -0.851492 0.7116197 -0.14947082 0.24742734 -1.0914611 -0.6354941
-0.43921635 -0.09104757 0.51074976 -0.5038826 0.20103863 0.52302444 0.11797406 -0.034032248
0.387686 -0.7671346 -1.1175755 0.9459748 0.6846793 -0.28050822 -0.21178584 -1.1323684
-0.04312503 0.9840274 0.34932718 -0.6110464 0.3797388 -0.7480477 -0.37715322 0.21399872

sequential/ftr1/separable_conv2d f4 [16, 1, 1, 8]
00000000: f93c cd3d 091e 3c3d dde7 633e 2b2e cb3d
00000010: cbcb 12bf 514b eebd a819 f5bc 936a 233e
00000020: f06c aa3e 7ebf 4a3e c1a4 503d 0e77 4b3d
00000030: 1b90 e13d 52c0 893e 60d2 853e 59d9 83bd
00000040: 01e5 0cbd ab30 61be f8a2 1a3f 74e7 0a3f
00000050: 42c2 3bbe 7a5b b5bd 1181 06be 4561 123d
00000060: 9399 20be 5c09 d6bc e7e4 933e ab6f 02be
00000070: 000d c6be 8d78 7f3e 20df 25be e753 973e
00000080: 8f6d 093f 083c 72bd 9007 393e e818 e13e
00000090: 248c 9b3d dd53 783e 0db7 a7bd a011 d43e
000000a0: df36 1bbe f1d5 9dbc 5acf 243f 1edb 013d
000000b0: 8abf f6bd 1c56 24bf 26fb 06bd 73b2 33be
000000c0: 1943 a33e 3f23 45bf b4e9 83bc 274e 5ebe
000000d0: d717 8c3d 8445 2dbe 8d10 8e3e 85d3 a63e
000000e0: f8fa bcbd 3fa7 193d b5c7 a03d e64a b03d
000000f0: 9692 80be 7644 3e3e a3c3 dc3e 2af7 66be
00000100: d4cb 40be 8284 b53d 7690 383e c09c f0be
00000110: 5964 8cbe baaf 3bbe 968a 393e 3035 18bd
00000120: 904f 5cbe 0912 af3e 4e0f 78bc 4199 bebd
00000130: d02d af3c 9204 c6be 66b8 c13d 7d51 71bd
00000140: da17 9ebe 6be4 1abf 0d9a b83d 830d 43bd
00000150: 6257 073e ee58 bfbd 423f 873d 73c3 4d3d
00000160: 1b62 043e 89d1 023e e23b ce3e d800 313e
00000170: 2680 abbe 133f 0a3f f2d4 9b3d eedb 1abf
00000180: 4789 07bf 3588 33bf d621 06be 1d60 7fbe
00000190: 1401 c9bd 11ed 33be dd7b 3c3d 41c8 123f
000001a0: 58dd e2be 634a 7ebd 4b0d a9be 919f a5bf
000001b0: 3126 5bbd 0d89 1b3e e4c3 dbbd e3a6 83be
000001c0: 3b8e a73d 0d2a 22be c9a5 c73e 35d4 723e
000001d0: 6806 ecbd 7a8c 973d 4024 0b3f f1ee ee3d
000001e0: 9092 31bf b9b2 a13e 53fb 843d fbdd e83c
000001f0: 6bc3 283e e20d cdbe be9b c93e fe02 0dbe
0.10021395 0.04592708 0.22256418 0.09920915 -0.57342213 -0.11635459 -0.02991946 0.15958624
0.33286238 0.19799611 0.05093837 0.049674086 0.11013814 0.2690454 0.26137066 -0.0643794
-0.034398083 -0.21991222 0.6040492 0.5425942 -0.18335822 -0.088553384 -0.13135172 0.035737295
-0.15683584 -0.02612751 0.28885576 -0.1273791 -0.38681793 0.2494833 -0.16198397 0.295562
0.536828 -0.05913928 0.18069291 0.43964314 0.07595089 0.24250741 -0.08189211 0.41419697
-0.1515765 -0.019267054 0.64378893 0.031703107 -0.12048252 -0.6419389 -0.032954358 -0.17548542
0.3188713 -0.77006906 -0.01610265 -0.217095 0.068404846 -0.1692105 0.27747002 0.32583252
-0.09227556 0.037513014 0.07850591 0.08608036 -0.25111836 0.18580803 0.4311801 -0.22555223
-0.18827754 0.088631645 0.18023857 -0.4699459 -0.2742031 -0.18328753 0.18119273 -0.0371601
-0.21514726 0.34193447 -0.015140368 -0.093065746 0.02138415 -0.38675362 0.09458999 -0.058915604
-0.30877572 -0.6050479 0.09013758 -0.047620308 0.13216928 -0.09343134 0.06603862 0.050235223
0.1292805 0.12775244 0.40280062 0.17285478 -0.33496207 0.54002494 0.076089755 -0.60491836
-0.52943844 -0.7012971 -0.13098845 -0.24939008 -0.09814659 -0.17570902 0.046016563 0.57336813
-0.44309497 -0.06208266 -0.33017954 -1.2939321 -0.05350322 0.15189 -0.107307225 -0.25713262
0.08181425 -0.15836354 0.38993672 0.23713763 -0.115246594 0.07399841 0.5435219 0.11666668
-0.6936426 0.31581667 0.06493249 0.028426161 0.16480796 -0.40049654 0.39376634 -0.13770673

sequential/ftr2/separable_conv2d/depthwise f4 [1, 3, 3, 16]
00000000: 7d2b 883e 9390 06bf c1cd 9d3e 151a 36be
00000010: a799 bc3e 504b 023f 4a42 803e 2101 2abf
00000020: 7efb 913f 8cb6 ba3e 833e eebd 313a f4bd
00000030: f551 d4be 1ded 8d3e 8c53 6c3f ee76 d03e
00000040: df58 b33d 8418 52be 85ff 18be 4478 0d3e
00000050: fd6b 02bc 44f5 2f3f fac0 683f 5750 d83e
00000060: 7ce6 02bf aaa5 11be 215d 86bf e1a8 593f
00000070: cc94 b8bd 8a98 05bd 0a93 e9be af3e d0be
00000080: 19c4 85bd 0d32 083f 18d9 7abe b12f c0bd
00000090: 6b85 7ebe 9c71 cf3d 7bec 923e ba9c 3d3f
000000a0: 845d ffbd 0234 b9be 329f 2fbe af72 4fbf
000000b0: 388c 00be 1800 473c 253e 0ebf 10ac e9bd
000000c0: 1a91 5ebe bc46 ab3d f2a2 253e 3a9b 463e
000000d0: f722 713f 9484 e53e 1c5d 243f 5f2b 60be
000000e0: c707 a5bd d6a9 9f3e c2a3 653e 3032 27bc
000000f0: e6b8 a7bd b469 0f3d aa40 abbd 63c1 f23e
00000100: b1f0 07c0 cd79 f53f 66d5 c23f 392b e0bd
00000110: 925e 2abf 0706 713f 5f91 9f3f ce6c 973f
00000120: a3a7 623f 112e d4bf 97ad cbbe a613 853f
00000130: b3e0 a73f ba6a 90bf 4847 4dbf 32f7 b8bf
00000140: 306e 663f 07e1 2bbe fecf a13e 2be6 77be
00000150: 00b9 e7be c7b0 163f 0c90 313f 42aa babf
00000160: 6551 d13d 3ad1 c53d f4cf abbe b0c9 bf3c
00000170: 0a81 25bf 59a2 1cbf ef60 b3bf 8747 263e
00000180: 3f91 ee3d e352 c0bc 6ff7 a73e fc38 0540
00000190: da04 6f3e 95d7 333d 711a babc 0ccb dd3e
000001a0: e180 42be a386 f13d 605d a33e 3372 8d3e
000001b0: 068d 46bf c80f 623c d23e 60bf 6cec 0fbe
000001c0: 7793 d03e 3dbc 223d 1241 9abe 124b 083f
000001d0: 08bd 753f ea8d 513e b576 053f 6059 913e
000001e0: 7c67 db3e 4a2a 0ebf 98d9 2dbf 2338 e2be
000001f0: cab4 0f3e 139e 7e3e 587a 8ebe be1e a4be
00000200: b3f4 11bf 8b79 7e3e fbba 0fbf 5410 92bc
00000210: c545 ce3e a938 213f 0fd8 163e 0503 c13e
00000220: fc34 493f 6c25 3a3e 7a52 33bf 5d6d 713f
00000230: 7fe3 943e 54ff 80be dd07 493f c194 cc3e
0.2659568 -0.5256435 0.3082104 -0.17783387 0.36835977 0.5089617 0.25050575 -0.6640797
1.1404874 0.36467397 -0.11633017 -0.11925162 -0.41468778 0.27719966 0.9231498 0.40715736
0.08757185 -0.20517164 -0.14941223 0.13815409 -0.007960317 0.6873362 0.9091946 0.42248794
-0.5113294 -0.14223352 -1.0497171 0.85023314 -0.09012756 -0.032616176 -0.45619994 -0.40672824
-0.06531543 0.5320137 -0.24496877 -0.093840964 -0.24855582 0.10129091 0.28696045 0.7406727
-0.124690086 -0.3617249 -0.17150572 -0.8103437 -0.12553489 0.012146018 -0.55563575 -0.114097714
-0.2173504 0.08363101 0.1617544 0.19395152 0.9419398 0.44827712 0.64204574 -0.21891545
-0.08058124 0.31184262 0.2242575 -0.010204837 -0.081895635 0.035012916 -0.08361943 0.47413167
-2.1240656 1.9177796 1.5221374 -0.10945744 -0.6655055 0.9414982 1.2466239 1.183008
0.88537043 -1.6576558 -0.39780876 1.0396621 1.3115448 -1.128257 -0.8018689 -1.4450438
0.9001188 -0.1678506 0.31603998 -0.24208896 -0.4525833 0.5886349 0.69360423 -1.4583209
0.10220603 0.096590474 -0.33557093 0.023411602 -0.64650023 -0.6118522 -1.4013957 0.16238223
0.11648797 -0.023477023 0.32805964 2.081603 0.23341694 0.043906767 -0.022717686 0.43318975
-0.18994476 0.11793258 0.31907177 0.2762619 -0.77558935 0.013797708 -0.87595856 -0.14055032
0.40737507 0.0397303 -0.3012777 0.5323955 0.95991564 0.20464292 0.5213426 0.283885
0.4285239 -0.5553328 -0.67910147 -0.44183454 0.1403381 0.24864988 -0.27827716 -0.32054704
-0.57014006 0.24851052 -0.56144685 -0.017830051 0.40287605 0.6297708 0.14730857 0.37697616
0.7859647 0.18178338 -0.70047724 0.943075 0.29079816 -0.251948 0.78527623 0.3995724

sequential/ftr2/separable_conv2d f4 [16]
00000000: 0000 0000 0000 0000 0000 0000 0000 0000
00000010: 0000 0000 0000 0000 0000 0000 0000 0000
00000020: 0000 0000 0000 0000 0000 0000 0000 0000
00000030: 0000 0000 0000 0000 0000 0000 0000 0000
0.0 0.0 0.0 0.0 0.0 0.0 0.0 0.0
0.0 0.0 0.0 0.0 0.0 0.0 0.0 0.0

sequential/ftr2/separable_conv2d1 f4 [16, 1, 1, 16]
00000000: d962 46bf 9bf2 aebe a968 c8bf 74d6 903f
00000010: 9d74 0ec0 5473 833e a4c1 0b3f 293a a93f
00000020: 6a12 f2be 78c5 d43f eeee d73f fc50 183f
00000030: 4812 1140 e944 9d3f 7727 8340 191c 1fbf
00000040: 61e2 9940 7fce 1740 530e 07be e131 27c0
00000050: 2b28 8dbf d1ac 40bf 3a20 0ebd a527 35c0
00000060: 4cf4 763f 37f2 a7be 87a4 823f 81c9 1240
00000070: c5f3 0140 1087 19c0 0335 9ebf 9ff1 4bbe
00000080: beb3 343e 6c98 50bf 9bb7 723f 84a0 bd3f
00000090: ddec 97bf 0098 2b40 0659 ef3f 46db 31bf
000000a0: af10 af3f 3871 3540 75ff 3640 1263 8040
000000b0: 5c5d c83f beeb babf fd8d 4e3e 8d6d 1fc0
000000c0: 9168 4440 8181 d1be b3c0 27c0 899b aa3e
000000d0: 82cd 02c0 8d9c d4be 9fcf 2c40 edf8 8bbe
000000e0: 1723 60bf ca0e 0140 1122 8e3f 88cf 2d3f
000000f0: 5261 fe3f 2d47 6ebf 719f d6bf 26d5 07c0
00000100: 8a44 6b40 c906 0540 b1c3 d6bf 8d25 2cc0
00000110: 7980 cfbe e94b dabe ab05 793f 943d 6fc0
00000120: a4f3 64c0 1169 903e e7b3 cbbf a37d 083e
00000130: 159a 09be c2e6 a8bd 08bf 2140 d77e 9abe
00000140: 21e7 debe 2d77 993e af40 0bbf bb5e b3bf
00000150: 4c30 f33f 0771 dfbf 1eda d8bf b353 3bc0
00000160: 421e 88c0 2c4e c3bf 587d 7dbf 0fcc 053f
00000170: 1279 83bf 9f69 2140 2e82 1740 4a92 8f3f
00000180: 7303 1e40 a0e6 f03f 64f5 b8bf 5ec9 65c0
00000190: 3820 03c0 cb55 8e3f 00c8 3d3f 3fa7 36c0
000001a0: 8342 57bf ec86 a93f a035 6b3e 4336 15be
000001b0: 4caf 973f 9663 b33f cb47 913f 836c 39c0
000001c0: bbfa 1f3f 650e 183f d332 afbf 77b3 c9bf
000001d0: 8316 87be 158e c3bf f2a0 2bbc 18ff 7fc0
000001e0: 812c 99bf 0edd 9340 bcac 20c0 9ab3 973f
000001f0: e922 01c0 2443 8a3f 99b1 5040 80d4 25c0
00000200: 4869 ab3e 4334 3640 6ba0 723f 00a9 733c
00000210: 9079 d83d 21a7 a63e 5975 5240 72a0 8a40
00000220: b2cf 84bf cdbf d23f 42c9 e6be 271b 8440
00000230: 31ce 353f c5d3 793e a74c 0b40 ddba f7bf
00000240: 3257 683f 3676 0940 dab4 eebf d4d3 a0bf
00000250: 5c14 25c0 cc14 6d40 abcb 0d40 693f 79be
00000260: 224f 79c0 d92e 9d40 4904 0d40 49dc e6be
00000270: 2109 2540 2ecf d83f ca34 003f 0bc6 87c0
00000280: ccc8 6abf c461 b83f 3cf9 0bc0 d0e0 46c0
00000290: 97d4 2ebf e752 813f c751 923f a7b0 7e3f
000002a0: 1d57 cb3f f85f 223f 43d2 dd3f ff94 a13e
000002b0: 0020 a0bf 996e c6be 34be 9f40 4a40 87bf
000002c0: d84d fa3f f3b5 87bd 50b9 78bf 0c6d 36be
000002d0: 8fd3 aebf 0cdf 6a3f 02df b33f 3021 0dc0
000002e0: e912 293f 0f7f 7c3f c3f3 0d40 e644 1940
000002f0: 2a47 1040 0962 abbf 977d 1fbf 4e3d fabf
00000300: 68cd f83f 264d 2dbf bb1b 80be 1264 ff3f
00000310: cace 743f ffae 3c3f 6343 a7bd 9c9f 54c0
00000320: c08b 0240 f6bf 1f3f d8eb c93e f94d 87be
00000330: a200 1e3e c3bd f2bf c31d 8140 d07f 59bf
00000340: 0697 1640 6d9c 2440 3448 c63e 6f8b 0cc0
00000350: 6fcd b3bf 93df 1740 2b4e 5340 885e d1be
00000360: 8b6b de3f 1c39 4c40 822b 1240 326c 95be
00000370: 1874 1540 39e8 c6bf 08f1 ac3f 5507 63c0
00000380: 6cd8 8d40 bbaa 4840 9704 883f e993 3cc0
00000390: d9f9 f5bf f70b b23f 76eb 8e3e 622b a0bf
000003a0: cef2 093f 25f7 a63e 67d5 703f e133 98bf
000003b0: e2e6 f53f ca51 f2bf 455c d23f 6fd0 9abe
000003c0: ee63 8b40 4ee8 2dbe ed49 67c0 11c4 d13b
000003d0: be69 47bf 789e c8bf 72f7 0a40 fa29 debf
000003e0: 819e 9b3e cdd2 f9be 0a72 113f b538 95bf
000003f0: 914a d63f 42b9 55bf 9291 19bf e799 edbc
-0.7749458 -0.34169468 -1.565694 1.1315446 -2.2258675 0.25673926 0.5459235 1.3220874
-0.47279674 1.6622763 1.686979 0.5949857 2.2667408 1.2286655 4.0985675 -0.6215225
4.808884 2.3719785 -0.13189058 -2.6124194 -1.1027883 -0.75263697 -0.034698702 -2.8305447
0.9646652 -0.32801983 1.020646 2.2935488 2.0305035 -2.3988686 -1.2359928 -0.1991639
0.17646691 -0.8148258 0.9481141 1.481461 -1.186916 2.6811523 1.8699043 -0.6947521
1.3676966 2.8350353 2.8593419 4.0120935 1.5653491 -1.4603193 0.20171352 -2.4910614
3.0688822 -0.40919116 -2.6211364 0.3332179 -2.0437932 -0.4152569 2.7001722 -0.27338353
-0.8755354 2.0165277 1.1104146 0.6789479 1.987345 -0.93077356 -1.6767408 -2.1223845
3.6760583 2.0785391 -1.677847 -2.689792 -0.40527704 -0.4263604 0.97274274 -3.7381334
-3.5773706 0.2820516 -1.5914277 0.13329177 -0.13437684 -0.082471386 2.5272846 -0.30174896
-0.43535712 0.29973736 -0.54395574 -1.4013284 1.8999114 -1.7456368 -1.6941564 -2.9269836
-4.2536936 -1.5258231 -0.99019384 0.52264494 -1.0271323 2.5220716 2.3673205 1.1216519
2.4689605 1.8820381 -1.4449887 -3.5904155 -2.0488415 1.1119932 0.741333 -2.853958
-0.84085864 1.32443 0.22969675 -0.1457148 1.1850371 1.4014766 1.1350034 -2.897248
0.6249196 0.59396964 -1.3687385 -1.5757893 -0.26384363 -1.5277735 -0.010475384 -3.9999447
-1.1966707 4.620734 -2.5105429 1.1851685 -2.0177557 1.080174 3.2608397 -2.591095
0.3347876 2.8469398 0.9477603 0.014871836 0.10570061 0.32549384 3.2884123 4.3320856
-1.0375884 1.6464783 -0.45075423 4.1283145 0.7101775 0.2439719 2.1765535 -1.9353901
0.9075805 2.14784 -1.8648942 -1.2564645 -2.5793676 3.7043943 2.215556 -0.24340595
-3.895455 4.9119687 2.2033865 -0.4508994 2.5786822 1.6938226 0.5008055 -4.242925
-0.9171264 1.4404836 -2.187087 -3.1074715 -0.68293136 1.0103425 1.1431206 0.994883
1.588596 0.63427687 1.7329792 0.31558987 -1.2509766 -0.38756254 4.991968 -1.0566494
1.9555006 -0.06626501 -0.97157764 -0.17815036 -1.3658313 0.9174659 1.4052432 -2.2051506
0.6604448 0.98631376 2.218003 2.3948302 2.2543435 -1.3389293 -0.6230101 -1.9549959
1.9437685 -0.67695844 -0.25021157 1.9952414 0.95628035 0.7370452 -0.0816715 -3.3222418
2.0397797 0.62402284 0.39437747 -0.26426676 0.15429929 -1.8964161 4.034883 -0.8496065
2.3529677 2.5720475 0.38726962 -2.1960104 -1.4047068 2.373021 3.301646 -0.40892434
1.737657 3.1909857 2.2839055 -0.2918411 2.3352108 -1.5539619 1.3511057 -3.5473225
4.4326687 3.1354206 1.0626401 -2.9465277 -1.9216872 1.3909901 0.27914017 -1.2513239
0.53886116 0.3261043 0.94075626 -1.1890832 1.9211085 -1.893121 1.6434408 -0.30237147
4.3559484 -0.16983148 -3.613887 0.0064015468 -0.77895725 -1.5673361 2.1713529 -1.735656
0.30394366 -0.4879364 0.56814635 -1.1657931 1.6741506 -0.83485806 -0.5998775 -0.02900405
