proprietary/odm/firmware/water_check.tflite (tflite, 13360 bytes, 17 tensors)

Const_12 f4 [16]
0	0xbf896830	-1.073492
1	0xbe98b761	-0.29827407
2	0x3e799c18	0.24375951
3	0x3f064a8c	0.524575
4	0x3f9ad9d8	1.2097731
5	0x3f8e2b83	1.1107029
6	0x3f456fea	0.7712389
7	0x3f9bac11	1.2161885
8	0xbf40f9f8	-0.7538142
9	0x3edc6a76	0.43049973
10	0xbf178848	-0.59192324
11	0xbf64ee9e	-0.894266
12	0x3f6668da	0.9000374
13	0xbf559edc	-0.83445525
14	0xbf17f655	-0.5936025
15	0x3e02f878	0.12790096

Const_16 f4 [16]
0	0x3f192232	0.598178
1	0x3f432745	0.76231796
2	0x3f497788	0.78698015
3	0xbf77d75c	-0.9681299
4	0xbfdfaedf	-1.7475241
5	0x3eb61ca0	0.35568714
6	0x3e217c54	0.15770084
7	0xbe4e82a5	-0.20167024
8	0xbe39bd2e	-0.18138573
9	0x3ed36963	0.4129134
10	0x3f008641	0.50204855
11	0xbe3ccf60	-0.18438482
12	0x3fdc1490	1.7193775
13	0x400ad03c	2.1689596
14	0x3e1dbcd2	0.1540406
15	0x3fa2efdf	1.2729453

Const_20 f4 [16]
0	0xbf55483d	-0.8331335
1	0x40336716	2.8031669
2	0x3fce4703	1.6115421
3	0xbf3940b0	-0.7236433
4	0xbe725946	-0.23666868
5	0x3fd92317	1.6963834
6	0x40006410	2.0061073
7	0x3d057950	0.032586396
8	0x3f9183f6	1.1368396
9	0x400afa87	2.171541
10	0x3f97eb54	1.1868691
11	0x3f9993f6	1.1998279
12	0x4040d49c	3.0129766
13	0x3ff1ebaa	1.8900044
14	0x3f9f93e6	1.246701
15	0x3f2b532c	0.66923785

Const_23 f4 [2]
0	0x3ec9fb83	0.394497
1	0xbe4f2ecd	-0.20232697

Const_8 f4 [16]
0	0x3f496492	0.78669083
1	0xbf6f4402	-0.93463147
2	0xbf9c82c9	-1.2227412
3	0x3f5e77e8	0.8690171
4	0x3f92c034	1.1464906
5	0x3f2805c1	0.6563378
6	0xbf96a14c	-1.1767974
7	0xbe859de1	-0.26097015
8	0xbe4c42f4	-0.19947416
9	0x3f76c5fa	0.9639584
10	0x3e91cc45	0.28476158
11	0x3f6a52ab	0.9153239
12	0x3f7f5288	0.9973531
13	0xbe2b4168	-0.16724169
14	0xbf9c608f	-1.2216967
15	0xbf1dff87	-0.6171803

MatMul f4 [2, 16]
0	0x3f281b48	0.6566663
1	0x3fa6f842	1.3044512
2	0x3f8ba0a7	1.0908402
3	0x3f5b2241	0.8559914
4	0xbfd88336	-1.6915042
5	0x3f6f5d73	0.9350197
6	0x3f31d0b1	0.6945906
7	0x3fa5093b	1.2893442
8	0x3f7a36d3	0.97739905
9	0x3fa6328a	1.2984173
10	0x3fb2c5b7	1.3966588
11	0xbff013f1	-1.8756086
12	0x3f7d3401	0.98907477
13	0x3f073e99	0.5282989
14	0xbfa1420e	-1.2598283
15	0x3f876a07	1.0579232
16	0xbf535703	-0.82554644
17	0xbfc16ca2	-1.5111277
18	0xbfa4cfa0	-1.2875862
19	0xbf27e0ea	-0.65577567
20	0x3fd4b845	1.6618735
21	0xbf5e258b	-0.86776036
22	0xbf639ac4	-0.8890803
23	0xbf8183a6	-1.0118301
24	0xbf95757d	-1.167648
25	0xbf9ded3a	-1.2338021
26	0xbfb82eb7	-1.4389256
27	0x3fd344d2	1.6505377
28	0xbf85ef64	-1.0463681
29	0xbf5c6d04	-0.86103845
30	0x3f860112	1.0469077
31	0xbf3af0cc	-0.73023677

convolution f4 [1, 3, 3, 1]
0	0xbe26964d	-0.16268273
1	0x3ed8e047	0.4235861
2	0xbf766df8	-0.9626155
3	0x3bfb2d01	0.007665277
4	0xbf57410a	-0.84083617
5	0x3f758a81	0.95914465
6	0xbd9e1062	-0.077179685
7	0x3edbacfa	0.42905408
8	0xbf89428c	-1.0723433

convolution_1 f4 [16, 1, 1, 1]
0	0xbf8a8b9b	-1.0823854
1	0x3f963fe0	1.1738243
2	0x3f93c51e	1.154453
3	0xbf7a2868	-0.97717905
4	0xbf71187f	-0.94178003
5	0xbf871de4	-1.0555997
6	0x3f91d2b5	1.1392428
7	0x3f699e29	0.9125696
8	0x3f779c2a	0.9672266
9	0xbf7c4d46	-0.9855541
10	0xbf6a6e1a	-0.9157425
11	0xbf83aefb	-1.0287775
12	0xbf7e6efe	-0.9938811
13	0x3f7eb492	0.9949428
14	0x3f8f773b	1.1208261
15	0x3f8b8398	1.0899534

depthwise f4 [1, 3, 3, 16]
0	0xbde35205	-0.11099628
1	0x3ca87d4f	0.020567564
2	0xbec4e51e	-0.38456053
3	0xbd475d03	-0.048672687
4	0x3da0408e	0.07824813
5	0xbec27626	-0.37980765
6	0xbeac823b	-0.33693108
7	0x3ea66f2e	0.32506698
8	0x3df7cbd2	0.120994225
9	0xbe3799c6	-0.17929754
10	0x3e6d7ccf	0.23192142
11	0xbd8c6738	-0.06855625
12	0xbec0fbed	-0.37692204
13	0xbdaed5cf	-0.085368745
14	0x3e50755e	0.20357272
15	0x3d926ebb	0.071500264
16	0xbf08f784	-0.5350268
17	0x3e7c9233	0.24665146
18	0xbf1084cd	-0.5645264
19	0xbed3b156	-0.41346234
20	0x3e93e3f4	0.28884852
21	0xbedea00f	-0.4348149
22	0x3e62e0b8	0.22156036
23	0xbdbc8965	-0.092058934
24	0xbe8ce6e3	-0.27519903
25	0xbeb53be5	-0.35397258
26	0x3e72439a	0.236586
27	0xbf1d14e8	-0.61360025
28	0xbe981414	-0.29702818
29	0x3e839145	0.2569677
30	0x3c2defe0	0.010616273
31	0xbebc1cf4	-0.3674084
32	0xbec2ddd4	-0.38059866
33	0x3e626aaa	0.22111002
34	0x3eaf60ee	0.3425364
35	0xbd3e0eb0	-0.046400726
36	0x3e6350bf	0.22198771
37	0xbe37372d	-0.17892142
38	0xbf1914d8	-0.5979743
39	0x3e9d402e	0.30713028
40	0xbea985f7	-0.3311002
41	0x3e6ad313	0.22932081
42	0x3dbffc77	0.09374326
43	0x3ea38c79	0.3194311
44	0xbec3a1f0	-0.38209486
45	0xbe4098dd	-0.18808313
46	0x3de557e1	0.11198402
47	0xbd6e3459	-0.05815539
48	0x3e9eb4f7	0.3099744
49	0x3d955787	0.07292085
50	0x3de6f700	0.1127758
51	0xbe39702e	-0.181092
52	0x3ecbeec2	0.39830595
53	0xbea790b6	-0.32727593
54	0xbe1dde6e	-0.15416881
55	0xbe0d7190	-0.13812852
56	0x3cc68004	0.024230964
57	0x3ea432af	0.3206992
58	0x3d0ce8e3	0.034401786
59	0x3e75c4ef	0.24000905
60	0xbe174673	-0.14772968
61	0xbd8eeee1	-0.06979156
62	0x3e49fca8	0.19725287
63	0xbee78368	-0.45217443
64	0xbe890b3a	-0.26766378
65	0x3ecb56e3	0.39714727
66	0x3f02b4aa	0.5105692
67	0x3dda6420	0.106636286
68	0x3f0d7369	0.55254227
69	0xbf17fa0b	-0.5936591
70	0xbf0c6df2	-0.54855263
71	0x3cbf7c0b	0.023374578
72	0x3ec8521e	0.3912515
73	0x3e6a6ab8	0.22892272
74	0xbe67159f	-0.22566842
75	0xbe5893d9	-0.2115015
76	0xbea12651	-0.31474546
77	0x3ee4d6cb	0.44695124
78	0xbebdb004	-0.37048352
79	0xbe7fc8d9	-0.24978961
80	0xbe8751ca	-0.26429588
81	0x3f2937ef	0.6610097
82	0x3deab050	0.1145941
83	0x3c7e0873	0.015504944
84	0x3e3ca421	0.18421985
85	0xbe9494a4	-0.29019654
86	0xbdcebf93	-0.10095134
87	0xbe343a01	-0.17600252
88	0xbe8c0d83	-0.2735406
89	0x3e8bea3d	0.27327147
90	0x3f03c896	0.51477945
91	0xbf092c78	-0.5358348
92	0xbf051425	-0.51983863
93	0x3b791519	0.003800696
94	0x3ec2be24	0.3803569
95	0xbd2516fc	-0.040305123
96	0x3d975d4b	0.07390841
97	0xbe1662c4	-0.14686114
98	0x3b8680bf	0.004104703
99	0x3daccd5c	0.08437607
100	0x3ee3f8cf	0.44525763
101	0xbebdcc15	-0.37069765
102	0x3ba3615c	0.0049859714
103	0x3e924bca	0.28573447
104	0x3d2541eb	0.040346067
105	0xbe02193f	-0.12704943
106	0xbe8815e0	-0.2657919
107	0x3d806cae	0.06270729
108	0x3df41f61	0.119200476
109	0xbdaf7af6	-0.08568375
110	0x3e8fa6d0	0.28056955
111	0xbeedb22d	-0.46425
112	0x3ec19f98	0.37817073
113	0x3deb099d	0.11476443
114	0xbb0c8921	-0.002144404
115	0xbed6ec88	-0.41977334
116	0xbd96f653	-0.07371201
117	0x3d02b15e	0.03190743
118	0xbf0813bf	-0.5315513
119	0x3e36fc14	0.17869598
120	0xbebd34d2	-0.3695436
121	0xbdb74cce	-0.08950196
122	0x3ea3cedc	0.3199376
123	0x3ef90d27	0.48642847
124	0x3e40c2e2	0.18824342
125	0x3f1e9b41	0.6195565
126	0xbe7e093f	-0.24808215
127	0xbe1a4918	-0.15066946
128	0xbf7e9608	-0.9944768
129	0x3efc4504	0.49271405
130	0xbecedd96	-0.40403432
131	0x3ecf2dc8	0.40464616
132	0xbf165575	-0.5872415
133	0x3e8205f9	0.25395182
134	0xbe37dae6	-0.17954597
135	0xbeca5e09	-0.39524868
136	0xbe4b4cb2	-0.19853476
137	0xbf0bec1f	-0.5465717
138	0x3f0c810b	0.54884404
139	0xbecd9b8a	-0.4015773
140	0xbf2d4a52	-0.6769153
141	0xbdf43720	-0.11924577
142	0x3ee4f9be	0.44721788
143	0x3e59b9e4	0.21262318

convolution_2 f4 [16, 1, 1, 16]
0	0x3e717f16	0.23583636
1	0x3c8586f6	0.016299706
2	0xbdd5458f	-0.10413658
3	0xbe32f4a7	-0.1747614
4	0xbd383434	-0.04497166
5	0xbe8139c7	-0.25239393
6	0x3d98413e	0.07434319
7	0xbd9061d9	-0.07049913
8	0xbda8dab7	-0.082448415
9	0x3df9878c	0.12184057
10	0x3e8967c7	0.26836988
11	0xbe10338a	-0.1408216
12	0xbd69c88f	-0.057076033
13	0x3d920847	0.07130485
14	0xbcc8ad35	-0.024496654
15	0xbda53a9f	-0.08067822
16	0xbdd899bd	-0.10576198
17	0x3d448069	0.047974024
18	0xbe0d0910	-0.13772988
19	0xbdd91a2a	-0.106006935
20	0xbd93c103	-0.072145484
21	0xbdb49b4e	-0.088186845
22	0xbda29dc6	-0.07940249
23	0x3e2c9882	0.16855052
24	0xbe2fa835	-0.1715401
25	0xbd953b41	-0.072866924
26	0x3d6ca219	0.057771776
27	0x3e281a79	0.16416349
28	0xbe4a33f4	-0.19746381
29	0xbe94d9f5	-0.29072538
30	0xbdd88b2b	-0.10573419
31	0xbd88c6ef	-0.066785686
32	0x3eb64f3a	0.3560732
33	0xbecc611c	-0.3991784
34	0x3dfb96dd	0.12284634
35	0x3b184eec	0.00232404
36	0x3eb3647f	0.3503761
37	0x3edb654a	0.42850715
38	0x3e922b66	0.28548735
39	0xbd3f9257	-0.04677042
40	0xbe33db99	-0.17564239
41	0xbd69cf27	-0.05708232
42	0xbdc48e58	-0.095974624
43	0xbd98e676	-0.07465832
44	0xbf3a1560	-0.72688866
45	0x3e501a0a	0.20322433
46	0xbcb1bc21	-0.021696152
47	0x3eb9f218	0.36317515
48	0xbc60004f	-0.013671949
49	0xbeac9875	-0.33710065
50	0xbe78331f	-0.24238251
51	0xbd1161ee	-0.035493784
52	0xbb694544	-0.0035594264
53	0xbdb2a0d3	-0.08722081
54	0x3cc00491	0.023439677
55	0x3e28806d	0.1645524
56	0x3d99c635	0.07508508
57	0x3dafa349	0.08576066
58	0xbedb7cb4	-0.42868578
59	0xbc9af2b6	-0.018914562
60	0x3e675352	0.22590378
61	0x3e0122ea	0.12610975
62	0xbe508fe1	-0.20367385
63	0xbec0beac	-0.3764547
64	0xbcf2e124	-0.029648371
65	0xbeab7c9f	-0.33493516
66	0x3ccb628a	0.02482726
67	0xbc840f39	-0.01612054
68	0xbd7ea404	-0.062168136
69	0xbd6e74d8	-0.0582169
70	0x3e971127	0.29505274
71	0xbd96b36c	-0.07358441
72	0x3e8149b5	0.25251547
73	0xbdae3b75	-0.08507434
74	0xbd94f46f	-0.072731845
75	0x3d92c723	0.071668886
76	0xbc09fe29	-0.008422413
77	0xbe9c1abf	-0.30489156
78	0xbdbf4033	-0.09338417
79	0x3ea842b8	0.32863402
80	0x3ea9bee4	0.3315345
81	0xbe329a6e	-0.17441723
82	0x3df0a1cd	0.11749611
83	0x3e9bac71	0.30405
84	0x3ca18d01	0.019720556
85	0x3eb81c65	0.35959163
86	0xbe8e1306	-0.2774889
87	0xbd477668	-0.048696905
88	0x3e34ac83	0.17643933
89	0xbd0eace1	-0.03483284
90	0xbe110740	-0.14162922
91	0x3ddea73f	0.108717434
92	0xbe9e63f0	-0.3093562
93	0xbd2f67d0	-0.042823613
94	0x3de0625c	0.109562606
95	0x3e90eb9e	0.28304762
96	0x3c2e64fa	0.010644192
97	0xbe0335da	-0.12813511
98	0x3ee55fa3	0.44799528
99	0xbda87632	-0.08225669
100	0xbe917e9c	-0.28416908
101	0xbc29fe7a	-0.010375613
102	0x3d978712	0.073988095
103	0x3d8e103a	0.06936689
104	0xbe767c46	-0.24070844
105	0xbd8629af	-0.06550919
106	0xbd4fd308	-0.050738364
107	0xbe9d94e5	-0.3077766
108	0x3e8bac6d	0.27279988
109	0x3caf7425	0.021417687
110	0x3d8181b3	0.06323566
111	0x3eed72f1	0.46376756
112	0x3ed39856	0.4132716
113	0xbf03a8b3	-0.5142929
114	0x3e9b1152	0.30286652
115	0xbe9d94d5	-0.30777612
116	0xbef1a681	-0.47197345
117	0x3da52b3a	0.080648854
118	0x3da6f12a	0.08151467
119	0x3d395a59	0.045252178
120	0x3e37c813	0.17947416
121	0xbe0a3f97	-0.1350082
122	0xbf637b22	-0.8885976
123	0xbebab124	-0.36463273
124	0xbf19b968	-0.6004853
125	0x3e5d4c1b	0.21611063
126	0xbeafed5b	-0.34360775
127	0xbe92abb3	-0.2864662
128	0x3dd8db84	0.10588744
129	0xbddddc62	-0.1083305
130	0xbebbb7ca	-0.36663657
131	0x3eb27c86	0.3486063
132	0x3ef6d4fe	0.48209375
133	0x3eb50c54	0.35360968
134	0x3dc250a6	0.09488039
135	0x3e2c674b	0.16836278
136	0x3e9bca9d	0.3042802
137	0x3f1c5e88	0.61081743
138	0x3e12552f	0.14290307
139	0xbc69708f	-0.0142480275
140	0xbebbc5ab	-0.36674246
141	0x3b0c97dd	0.0021452822
142	0xbd4c5311	-0.049883906
143	0xbd93f824	-0.072250634
144	0x3f9b4ae6	1.2132232
145	0x3f07d0e9	0.53053147
146	0xbee229be	-0.44172472
147	0x3e8b6dde	0.2723226
148	0xbd129276	-0.035784207
149	0x3ea13f69	0.3149369
150	0x3ef3f9d3	0.47651538
151	0x3e1f382d	0.15548773
152	0x3e9dd6c8	0.30827928
153	0xbf06b336	-0.52617204
154	0xbecb19c2	-0.3966809
155	0xbf4ed75e	-0.80797374
156	0xbf172d66	-0.5905365
157	0x3d9b11cc	0.07571754
158	0x3deccfbd	0.115630604
159	0x3de4f8ad	0.11180244
160	0xbe140590	-0.14455247
161	0xbda2a1f2	-0.07941045
162	0xbd2ee7a2	-0.04270137
163	0x3ec15c79	0.37765864
164	0x3e724260	0.23658133
165	0x3eea6689	0.45781353
166	0x3e94cc98	0.29062343
167	0xbd33495c	-0.043771133
168	0xbf039886	-0.5140461
169	0x3e6a18d5	0.22861035
170	0xbd0d9201	-0.03456307
171	0xbd553997	-0.052056875
172	0xbe9997db	-0.2999867
173	0x3e233c18	0.15940893
174	0xbed488bc	-0.4151057
175	0x3d046dea	0.032331385
176	0xbd99c31a	-0.07507916
177	0x3e359ef6	0.1773642
178	0xbddd65e2	-0.10810448
179	0xbc9ada76	-0.018902998
180	0x3d82baf1	0.063833125
181	0x3c09c522	0.0084088165
182	0xbe2e0299	-0.16993178
183	0xbe767a9a	-0.24070206
184	0xbdcc114f	-0.09964239
185	0x3d889cd2	0.06670536
186	0x3daedd52	0.08538307
187	0x3e2b00bf	0.16699503
188	0xbe51610c	-0.20447177
189	0x3d11803c	0.035522684
190	0x3dcf4088	0.1011973
191	0xbcc73d9a	-0.024321366
192	0xbd92e65c	-0.07172844
193	0xbe510712	-0.20412853
194	0xbe822e0b	-0.25425753
195	0xbeaf18fc	-0.3419875
196	0xbe64db86	-0.22349367
197	0x3cee419e	0.029084023
198	0x3f1d567e	0.614601
199	0xbe497afc	-0.19675821
200	0x3e170725	0.14748819
201	0xbeb19a0a	-0.34687835
202	0xbea3f002	-0.3201905
203	0x3ddc4c13	0.107566975
204	0x3cec4cd3	0.028845226
205	0xbd480d5c	-0.048840865
206	0x3f08ccf9	0.53437763
207	0x3dabc739	0.08387608
208	0xbd1efe59	-0.038816784
209	0xbcf641ab	-0.03006061
210	0xbdcfc748	-0.10145432
211	0xbec7bf1c	-0.39012992
212	0x3df94a88	0.12172419
213	0x3e8216eb	0.2540811
214	0xbe9f9a9b	-0.31172642
215	0xbf027292	-0.5095607
216	0xbe21244f	-0.15736507
217	0xbdb51d42	-0.08843471
218	0x3ea5fbb2	0.3241859
219	0x3dc5c3d1	0.0965649
220	0xbe8126b8	-0.25224853
221	0xbea6c5fc	-0.32572925
222	0xbe3bf2cf	-0.18354343
223	0xbe283fa5	-0.16430528
224	0xbdd0c23f	-0.101932995
225	0x3d054ae5	0.032542128
226	0x3ead7bc3	0.33883485
227	0x3d39384a	0.045219697
228	0x3f4d3e44	0.80173135
229	0x3f928c91	1.1449147
230	0x3ebcb064	0.36853325
231	0x3de8b75a	0.113630965
232	0x3bfaee79	0.0076578227
233	0x3df11041	0.11770678
234	0xbe3718e3	-0.17880587
235	0xbebef991	-0.3729978
236	0x3db0c6ef	0.086316936
237	0x3d9c7e87	0.07641321
238	0x3e4ddef0	0.20104575
239	0xbeeec0aa	-0.46631366
240	0xbf1fad86	-0.6237415
241	0x3ddfd1d3	0.10928693
242	0xbe126b0e	-0.1429865
243	0xbe4c45e3	-0.19948535
244	0xbecde3fc	-0.40213
245	0xbe9e1cd5	-0.30881372
246	0xbecf1671	-0.4044681
247	0xbec224c0	-0.37918663
248	0x3c0301b6	0.007996013
249	0x3dc4cf1f	0.09609818
250	0xbbe2ec7c	-0.006925164
251	0x3e5bbac6	0.21457967
252	0x3f751f4d	0.95750886
253	0xbe969b51	-0.29415372
254	0xbe5abf5c	-0.2136206
255	0xbec987f0	-0.39361525

depthwise_1 f4 [1, 3, 3, 16]
0	0x3e0edae0	0.13950682
1	0xbdeecd71	-0.116602786
2	0xbc4ff6ff	-0.012693166
3	0xbe5c6897	-0.21524273
4	0xbeddcdc9	-0.43321064
5	0xbdd02535	-0.10163347
6	0x3eab18ba	0.33417302
7	0x3e055d75	0.13023932
8	0xbdbc4cd2	-0.0919434
9	0x3e605bd4	0.2191003
10	0x3e35f797	0.1777023
11	0xbd3ef4ff	-0.046620365
12	0x3e0f5776	0.13998207
13	0xbe8babd1	-0.27279523
14	0x3de93f6a	0.113890484
15	0x3e3900ec	0.18066758
16	0x3eb7506a	0.3580354
17	0x3d610795	0.05493887
18	0x3e81181f	0.25213715
19	0x3d3ad25e	0.045610778
20	0xbe223f0d	-0.15844364
21	0xbd0d6657	-0.034521427
22	0xbed48af7	-0.41512272
23	0x3e957aae	0.2919516
24	0x3b8062bf	0.0039180215
25	0x3ec3101a	0.38098222
26	0xbdb9692c	-0.09053263
27	0xbdb3a452	-0.08771576
28	0xbe2a2b23	-0.16618018
29	0xbd9c07da	-0.07618685
30	0x3e3d7d12	0.18504742
31	0xbc309eaa	-0.010780016
32	0x3db5a852	0.08869995
33	0x3db7534e	0.08951436
34	0x3dc44290	0.09583008
35	0x3e0619e6	0.13095817
36	0xbec064ff	-0.37577054
37	0xbe42db60	-0.19028997
38	0x3e0039fe	0.12522122
39	0x3f228712	0.6348735
40	0xbdd198c0	-0.10234213
41	0x3e1b2811	0.15152003
42	0xbdc988db	-0.09840556
43	0x3c96b46d	0.01839658
44	0x3f400aae	0.75016296
45	0x3e9662cd	0.29372254
46	0x3e829673	0.2550541
47	0xbd495573	-0.049153756
48	0x3e4e6741	0.20156576
49	0x3e2b778c	0.16744822
50	0x3d9a862e	0.07545124
51	0xbe5003dc	-0.20313972
52	0xbda82d8a	-0.08211811
53	0xbe5be921	-0.2147565
54	0x3e258fee	0.16168186
55	0x3ecc6eec	0.39928377
56	0xbe2080b7	-0.15674101
57	0x3ea3661f	0.3191385
58	0x3e97dfc4	0.29662907
59	0x3e01f70f	0.12691902
60	0x3e0d07db	0.13772528
61	0xbc8015c1	-0.015635373
62	0x3ca9d3b5	0.020730833
63	0xbd9655b3	-0.073405646
64	0x3e846d01	0.25864413
65	0xbea76687	-0.3269541
66	0x3e44ba5c	0.19211715
67	0xbeec5b6e	-0.46163505
68	0xbe2061cc	-0.15662307
69	0xbe7cd464	-0.24690396
70	0xbf048ddd	-0.51778966
71	0xbb9a3512	-0.0047060335
72	0xbebc77f2	-0.3681026
73	0x3ed0fe19	0.4081886
74	0xbd850569	-0.064951725
75	0x3d70693c	0.05869411
76	0x3ece8cb3	0.4034172
77	0x3e2b7d08	0.16746914
78	0x3e5f9be9	0.21836819
79	0x3edd7506	0.43253344
80	0x3e873cdc	0.2641362
81	0xbdd5ee12	-0.10445799
82	0x3e951ff9	0.29125956
83	0x3de8acf2	0.11361112
84	0x3e416d1f	0.18889283
85	0xbf0f5a25	-0.55996925
86	0x3d2e3db7	0.042539325
87	0x3e25580a	0.16146865
88	0x3d539995	0.05166014
89	0x3ee9710a	0.45594054
90	0xbea932cd	-0.3304657
91	0x3e4fdc3e	0.2029886
92	0x3dbbd68d	0.09171782
93	0xbe4451ef	-0.1917188
94	0x3e93460d	0.28764382
95	0x3d78a232	0.060701557
96	0x3e1b1c9d	0.15147634
97	0x3decc846	0.115616366
98	0x3e033e34	0.12816697
99	0xbdfffa33	-0.124988936
100	0xbeb2de79	-0.34935358
101	0x3e5293ad	0.20564146
102	0x3eaf8bb8	0.34286284
103	0xbcd6017a	-0.026123751
104	0x3df32d53	0.11873879
105	0x3e8930b1	0.2679496
106	0x3e3fa95e	0.18716952
107	0xbe1f50fa	-0.15558234
108	0x3e8838fa	0.2660597
109	0x3ef04c02	0.4693299
110	0x3ef93301	0.48671725
111	0x3d837ff0	0.064208865
112	0x3da05e70	0.078305125
113	0x3e044ee6	0.12920722
114	0x3e8e0c17	0.277436
115	0x3e9950ef	0.2994456
116	0xbec493c1	-0.38393977
117	0x3e91fa7e	0.28511423
118	0xbe3ba2aa	-0.1832377
119	0x3d19848e	0.03747993
120	0x3e405c17	0.1878513
121	0x3e532d55	0.20622762
122	0x3df73dfe	0.12072371
123	0x3c3d9e53	0.011573392
124	0x3e559460	0.20857382
125	0x3d83f4a1	0.06443144
126	0x3e36dc92	0.17857578
127	0x3da618dc	0.0811021
128	0x3d7c7843	0.061638128
129	0xbf027a72	-0.50968087
130	0x3e6adb54	0.2293523
131	0x3ee26bd9	0.44222906
132	0xbf06aa2b	-0.52603406
133	0xbe6aac44	-0.22917277
134	0x3ef3f928	0.4765103
135	0x3e4d401f	0.20043992
136	0x3e9f83e3	0.3115531
137	0x3e42bc75	0.19017203
138	0xbdab9ad6	-0.08379142
139	0x3f292515	0.6607221
140	0xbdfedc5c	-0.12444374
141	0x3e3eeb8d	0.18644543
142	0x3f137a88	0.5760884
143	0xbf2c056a	-0.6719576

convolution_3 f4 [16, 1, 1, 16]
0	0xbf66ebea	-0.90203726
1	0xbf18ab49	-0.5963636
2	0xbf27f061	-0.65601164
3	0xbf0cf2ec	-0.5505817
4	0xbf44c28f	-0.7685937
5	0x3f1235d4	0.57113385
6	0x3dcd7e11	0.10033811
7	0x3e8265c1	0.25468257
8	0xbf4deedc	-0.80442595
9	0x3e8a7bcc	0.27047575
10	0xbed05a0c	-0.406937
11	0xbf2399c9	-0.6390653
12	0xbe100c27	-0.14067136
13	0xbc844716	-0.016147178
14	0xbf6f3500	-0.93440247
15	0x3da171d8	0.07883042
16	0xbea9d7de	-0.33172506
17	0x3f47d347	0.7805676
18	0xbcab5dc9	-0.020918744
19	0x3d6c055d	0.057622302
20	0x3fcbd679	1.5924827
21	0xbf191a17	-0.59805435
22	0x3ee6b6ea	0.45061427
23	0xbe9cbcd0	-0.30612803
24	0xbf7e3443	-0.99298495
25	0xbe334825	-0.1750799
26	0xbf5a2087	-0.8520588
27	0xbdde80d2	-0.10864414
28	0xbcf67647	-0.030085696
29	0xbcd2da8b	-0.025738975
30	0xbe41ab3b	-0.18912975
31	0xbd5b6b24	-0.053568974
32	0xbf374046	-0.7158245
33	0xbe49b916	-0.19699511
34	0xbf0b9164	-0.54518723
35	0xbf0349aa	-0.5128428
36	0x3c873d64	0.016508766
37	0x3ecf37b3	0.40472183
38	0x3fc85fbb	1.5654215
39	0xbe515282	-0.2044163
40	0xbf912272	-1.1338637
41	0x3d048723	0.03235544
42	0xbe739fe7	-0.23791467
43	0x3dc1f5b0	0.09470689
44	0x3ec63b2f	0.38717028
45	0xbf19aa8d	-0.60025865
46	0x3b7af34b	0.0038291987
47	0x3ca8377a	0.020534266
48	0xbf35f8a0	-0.71082497
49	0xbecaf039	-0.396364
50	0x3e21bfb9	0.15795793
51	0xbef317e4	-0.47479165
52	0xbd7d0c95	-0.061779577
53	0xbf0c0f9f	-0.54711336
54	0x3eb441b3	0.35206375
55	0xbdcdede8	-0.10055143
56	0x3eb2baf0	0.34908247
57	0x3f0276ef	0.5096273
58	0x3dc5811f	0.096437685
59	0x3db69da3	0.089167856
60	0x3e0d4a57	0.1379789
61	0x3f75c83d	0.96008664
62	0x3d8fbe81	0.070187576
63	0xbe0607f1	-0.13088967
64	0x3e6dc3e9	0.23219265
65	0x3e6fc709	0.2341577
66	0x3f06a141	0.52589804
67	0xbd3510da	-0.044205524
68	0xbfb20247	-1.3906945
69	0x3ebbff74	0.36718333
70	0xbe927830	-0.2860732
71	0x3f40e6bf	0.7535209
72	0x3e900af2	0.2813335
73	0x3f28493b	0.6573674
74	0xbebe5f79	-0.37182215
75	0x3de536c0	0.11192083
76	0x3eb29502	0.3487931
77	0x3ec4aa96	0.38411397
78	0x3ea85fa8	0.3288548
79	0x3f031a34	0.5121186
80	0x3da8d03e	0.08242844
81	0xbf73b4a1	-0.9519749
82	0x3eaba99a	0.33527833
83	0x3f8334fe	1.0250547
84	0xbe9a7347	-0.30166075
85	0x3eb7c474	0.3589207
86	0x3f911872	1.1335585
87	0x3ec5f17e	0.38660806
88	0x3e7248eb	0.23660628
89	0xbf886389	-1.0655376
90	0xbe840a6f	-0.2578921
91	0xbf18204d	-0.5942429
92	0x3d3e2291	0.046419684
93	0x3eb0e7e4	0.34551919
94	0xbd9997eb	-0.07499679
95	0xbac1c679	-0.0014783881
96	0x3d8d973c	0.06913611
97	0xbe31f4fe	-0.17378613
98	0xbfc5e656	-1.5460918
99	0x3e7fec60	0.24992514
100	0xbf162ebb	-0.58665055
101	0x3c5f0e18	0.0136142
102	0xbe6a7b92	-0.22898701
103	0xbec09ba9	-0.3761876
104	0x3cf5b699	0.029994296
105	0xbd8017aa	-0.062545136
106	0xbee6690f	-0.45002028
107	0xbde7feb1	-0.113278754
108	0x3f3389b0	0.7013197
109	0xbe630967	-0.22171555
110	0x3e08f47f	0.13374518
111	0xbe3ddaa6	-0.18540439
112	0xbc242592	-0.010018723
113	0x3d8c44e1	0.06849075
114	0xbf07dd2d	-0.5307186
115	0xbed28e89	-0.4112437
116	0x3eff286e	0.49835533
117	0xbec2c3ad	-0.38039914
118	0xbe075eb5	-0.13219722
119	0x3ccba1d9	0.024857448
120	0x3ebc61ad	0.3679327
121	0x3e82eaca	0.25569755
122	0x3e474b06	0.19462213
123	0xbf49158c	-0.785485
124	0xbd60cc35	-0.054882247
125	0xbcec7b37	-0.028867347
126	0x3e5ae87b	0.21377747
127	0xbd53023f	-0.051515814
128	0x3ea3a36f	0.31960627
129	0x3f02b9b9	0.5106464
130	0xbf6fb8e2	-0.93641484
131	0x3e458ee7	0.19292794
132	0xbe20e335	-0.15711673
133	0xbe7de709	-0.24795164
134	0xbe20f0fd	-0.1571693
135	0xbe2df4e6	-0.16987953
136	0xbec75644	-0.38933003
137	0x3f216f0a	0.6306006
138	0x3e9d74f5	0.30753294
139	0xbf2a38ab	-0.6649272
140	0x3e8f746e	0.28018516
141	0x3f03d08c	0.5149009
142	0x3e3c05dd	0.18361612
143	0xbdf30e90	-0.11868012
144	0x3f7d68fd	0.98988324
145	0x3ec8881f	0.39166352
146	0xbe4652bc	-0.19367498
147	0xbf186813	-0.59533805
148	0x3e45a884	0.19302565
149	0x3ea069c3	0.3133069
150	0x3e06cbf0	0.13163733
151	0x3ee1a490	0.44070864
152	0x3ed74561	0.4204512
153	0xbdcb8a14	-0.09938446
154	0xbf9dddf2	-1.2333357
155	0x3e96190b	0.2931598
156	0xbebfedda	-0.37486154
157	0xbfaa64f1	-1.3312055
158	0xbecd1184	-0.40052426
159	0x3ec2a908	0.38019586
160	0xbf8bcfcc	-1.092279
161	0xbf6b9f38	-0.92039824
162	0xbd511aa7	-0.05105081
163	0xbe0972a6	-0.13422641
164	0x3f2cc874	0.6749337
165	0x3dbd8e95	0.09255711
166	0x3ee6b408	0.45059228
167	0xbf856315	-1.0420862
168	0x3df34c76	0.11879818
169	0xbf8174ef	-1.011381
170	0x3d0a6abd	0.0337932
171	0xbf50c446	-0.8154949
172	0x3c70cb22	0.014696868
173	0xbea5cb9d	-0.32381907
174	0x3e43e678	0.19130886
175	0xbf0a3b6b	-0.53996915
176	0xbe239c06	-0.15977487
177	0x3e81b427	0.25332758
178	0xbf1b4807	-0.6065678
179	0xbf3f575b	-0.7474267
180	0xbe2ffdfa	-0.17186728
181	0xbdc7f8bd	-0.0976424
182	0x3ee37aa1	0.44429496
183	0x3d52c3bc	0.051456198
184	0xbdd0486f	-0.101700656
185	0x3d4086c9	0.04700354
186	0xbf70e971	-0.94106203
187	0xbbecfa2b	-0.007231971
188	0xbf3cf1fa	-0.73806727
189	0xbf08f402	-0.53497326
190	0x3e85ac26	0.261079
191	0xbda10cb1	-0.07863749
192	0xbf509dda	-0.8149086
193	0x3f2d0668	0.675879
194	0x3d8256ea	0.06364234
195	0x3efc4665	0.49272457
196	0xbf7700ac	-0.964854
197	0x3f077dd8	0.529264
198	0x3ee9a4e3	0.4563361
199	0x3f9cf315	1.2261683
200	0xbe6bc1d3	-0.23023157
201	0xbffb1229	-1.9614917
202	0x3e1c05c3	0.15236573
203	0x3ec9cc35	0.3941361
204	0xbfa26845	-1.268807
205	0xbe368690	-0.17824769
206	0xbf982d38	-1.18888
207	0x3ee65b30	0.44991446
208	0xbf2a3f77	-0.6650309
209	0x3e89d403	0.26919565
210	0xbeab392d	-0.3344206
211	0xbda5e1bc	-0.08099696
212	0x3d033ea3	0.032042157
213	0x3f25aec0	0.6471977
214	0x3f1439a0	0.5790043
215	0xbc80eaaf	-0.015736906
216	0x3dad5748	0.08463913
217	0xbec6c4c9	-0.3882201
218	0x3e16cce3	0.14726596
219	0x3c8d0cea	0.017218072
220	0xbe84792c	-0.25873697
221	0xbed96984	-0.42463315
222	0xbfa87cd7	-1.3163098
223	0x3fbb828c	1.4649215
224	0xbd2186eb	-0.03943531
225	0x3e9d06fb	0.30669388
226	0xbe17d099	-0.14825667
227	0x3e6336ec	0.2218892
228	0x3f88e96e	1.0696237
229	0x3f72ac2b	0.9479396
230	0x3e34c1ca	0.1765205
231	0x3ec7964b	0.38981852
232	0x3e055120	0.13019228
233	0x3f34cafc	0.7062223
234	0x3ec4295d	0.38312808
235	0xbf8fe967	-1.1243104
236	0xbee12f8c	-0.43981588
237	0x3d78eabc	0.060770735
238	0x3e780136	0.24219212
239	0xbccf670b	-0.02531769
240	0xbcaa6066	-0.02079792
241	0x3e8c8f56	0.27453107
242	0xbf64a7b4	-0.89318395
243	0xbd81bbc3	-0.06334641
244	0x3f0f6d50	0.5602617
245	0x3ed7d66d	0.4215578
246	0x3d92b828	0.07164031
247	0xbf134c2e	-0.57538116
248	0xbf3e6cfc	-0.74385047
249	0xbe784e75	-0.24248679
250	0x3e0343ee	0.12818882
251	0x3ea50414	0.32229674
252	0xbe52896a	-0.20560232
253	0xbf6db262	-0.92850316
254	0xbeef868a	-0.46782333
255	0xbee4e186	-0.4470331

depthwise_2 f4 [1, 3, 3, 16]
0	0x3e8b4f48	0.27208924
1	0x3e94eb4d	0.2908577
2	0xb8b47777	-8.605321e-05
3	0x3e07fd07	0.13280116
4	0xbef0c2aa	-0.47023517
5	0xbeb6e5a8	-0.3572209
6	0x3e35cd89	0.17754187
7	0xbe3c75de	-0.18404338
8	0xbe6894d6	-0.22713026
9	0xbe37db61	-0.1795478
10	0x3ed05223	0.40687665
11	0xbdae7f9e	-0.08520435
12	0xbd58d773	-0.052939843
13	0x3be222e7	0.0069011333
14	0xbe82457c	-0.25443637
15	0xbe520934	-0.20511323
16	0x3ecf8a8f	0.405354
17	0xbe82576d	-0.25457326
18	0xbe3b0c3f	-0.1826639
19	0xbd8363fb	-0.06415554
20	0x3e3e1649	0.18563189
21	0x3d2ab33d	0.04167484
22	0x3eb07485	0.34463897
23	0x3d524bd4	0.051341847
24	0x3e35c7dc	0.17752022
25	0x3f007175	0.5017312
26	0x3d71c605	0.059026737
27	0xbe19e060	-0.15026999
28	0x3eb9a98c	0.36262167
29	0xbe76682e	-0.24063179
30	0xbe240fa5	-0.16021593
31	0xbbb80eb3	-0.0056169867
32	0xbec76bf4	-0.3894955
33	0xbdcef5a6	-0.101054475
34	0xbe7e2e7e	-0.24822423
35	0xbe4fd764	-0.20297009
36	0xbe0143d3	-0.12623529
37	0xbe0772dc	-0.13227409
38	0x3e48d2ea	0.19611707
39	0xbe005195	-0.12531121
40	0xbeb2e902	-0.34943396
41	0x3e3b2988	0.18277562
42	0xbeac772c	-0.3368467
43	0xbe8d323d	-0.2757739
44	0xbd9c6cdc	-0.07637951
45	0xbe954d13	-0.29160365
46	0xbdc05e39	-0.093929715
47	0x3d02cb3d	0.031932104
48	0x3deac2ac	0.11462912
49	0x3ea3043d	0.3183917
50	0x3e216218	0.15760076
51	0xbe465cca	-0.19371334
52	0x3d6051fd	0.05476569
53	0x3ea70270	0.32619047
54	0xbb185e78	-0.0023249667
55	0xbeb965f1	-0.36210588
56	0x3db92bfd	0.09041593
57	0xbdcaf3c5	-0.099097766
58	0x3dcb34fd	0.09922216
59	0x3eae897d	0.3408927
60	0xbe3f9743	-0.18710046
61	0xbdb04edc	-0.08608791
62	0x3eefdfb3	0.46850356
63	0x3e81a03f	0.2531757
64	0x3e510e0d	0.20415516
65	0xbec6586f	-0.38739344
66	0xbe6f56d7	-0.2337297
67	0xbe7d10d7	-0.24713455
68	0x3e9ef8be	0.3104915
69	0x3ef667c0	0.4812603
70	0x3e25e0b5	0.16199
71	0xbe26cdb9	-0.16289414
72	0x3e56722c	0.2094199
73	0x3d911de0	0.07085776
74	0x3e89f4ea	0.26944667
75	0x3e2038a9	0.15646614
76	0x3f090ccc	0.5353515
77	0xbe936d96	-0.28794545
78	0x3e9677f5	0.29388395
79	0x3e8a7242	0.27040297
80	0x3e3dfafc	0.18552774
81	0x3de50e51	0.11184371
82	0xbdd77100	-0.105196
83	0xbe8e40fe	-0.2778396
84	0x3e37fd28	0.17967665
85	0x3df00078	0.117188394
86	0x3dac4c88	0.08413035
87	0xbeab932e	-0.33510727
88	0x3dcb6d42	0.09932949
89	0x3e15fa55	0.14646275
90	0xbeddbe6c	-0.43309343
91	0xbd811daa	-0.06304486
92	0x3dd8fcd9	0.10595102
93	0xbe3ebcc3	-0.18626694
94	0x3eb15c8f	0.3464093
95	0x3e9eb403	0.30996713
96	0xbe71c8b2	-0.23611715
97	0x3c83e998	0.016102597
98	0x3e3be529	0.18349136
99	0x3e91f93b	0.2851046
100	0xbea345d3	-0.3188921
101	0x3e91afda	0.28454477
102	0xbe4de2ae	-0.20106003
103	0xbe20f237	-0.15717398
104	0xbdba6284	-0.091008216
105	0x3e21e467	0.15809785
106	0x3ec3f70b	0.38274416
107	0x3e61d0a1	0.22052242
108	0xbc47a38d	-0.01218499
109	0xbdb3b2bf	-0.087743275
110	0xbdf355a4	-0.11881569
111	0x3ddd2e15	0.10799805
112	0x3dbac1f9	0.091190286
113	0xbea4efe8	-0.32214284
114	0xbe8372dc	-0.25673568
115	0xbb9f5ae7	-0.0048631313
116	0x3dd4f1ad	0.103976585
117	0xbe84c371	-0.2593036
118	0x3f246e8a	0.6423117
119	0xbd10e449	-0.03537396
120	0x3f03a0a1	0.51416975
121	0xbe13dc02	-0.14439395
122	0x3deb1a2e	0.11479603
123	0xbdd98a6a	-0.106221035
124	0x3eb23757	0.34807846
125	0xbe319ee9	-0.17345776
126	0x3ead180e	0.33807415
127	0xbd8bfe2e	-0.0683559
128	0xbe872332	-0.2639404
129	0x3ee8a5a6	0.4543888
130	0x3ea1a1cb	0.3156875
131	0x3e2bddd9	0.16783847
132	0xbe5f403f	-0.21801852
133	0xbe9504b5	-0.29105154
134	0x3da3ad03	0.07991984
135	0x3dfeedf7	0.12447732
136	0x3dbdfaa0	0.092763186
137	0x3d6faf4f	0.058516797
138	0x3d81406a	0.06311114
139	0x3ead87f3	0.33892784
140	0x3c393be9	0.011305788
141	0xbe45bf30	-0.19311213
142	0x3db16bd3	0.08663144
143	0x3e304bad	0.17216368

convolution_4 f4 [16, 1, 1, 16]
0	0xbcb41ce2	-0.021986429
1	0xbfae440a	-1.3614514
2	0x3f58aad5	0.8463567
3	0xc019af82	-2.4013371
4	0x3dd19df4	0.10235205
5	0xc000f402	-2.014893
6	0x3efa70ad	0.4891409
7	0xbe2e43a8	-0.17017996
8	0x3e92e542	0.28690535
9	0x401172ec	2.2726393
10	0xbf56d06c	-0.83911777
11	0x3efec142	0.4975682
12	0x3ed9f6f6	0.4257123
13	0xbf80f10e	-1.0073564
14	0x3fb0cf88	1.3813334
15	0xbf948435	-1.1602846
16	0xbf58a30d	-0.84623796
17	0xc051db20	-3.2789993
18	0x405ac59d	3.4183114
19	0xbf04992f	-0.5179624
20	0x3f9bac69	1.216199
21	0xbf7d7de1	-0.990202
22	0x405c4bfa	3.4421372
23	0xc097e250	-4.746376
24	0x400df0d1	2.2178233
25	0xc07cf719	-3.9525816
26	0xc0a8351d	-5.2564836
27	0x3faa5bcf	1.3309268
28	0x3d64b8e4	0.055840388
29	0xc03da8e0	-2.9634323
30	0xbfd2f7de	-1.6481893
31	0x3fffb0cd	1.997583
32	0x3ee155ae	0.4401068
33	0xbf422721	-0.75840956
34	0xbff9d3c3	-1.951775
35	0x402609b9	2.5943434
36	0xbf7b2ad2	-0.98112214
37	0x3fac06e1	1.3439599
38	0x3f6351b9	0.88796574
39	0x3f835d04	1.0262761
40	0x406f46e9	3.738703
41	0x3e74e807	0.23916636
42	0x3f874efa	1.0570977
43	0x3fa326f8	1.2746267
44	0xc0914486	-4.5396147
45	0x3ff1dca7	1.8895463
46	0xc012d9cc	-2.2945433
47	0xbec0d5ec	-0.3766321
48	0xbfe15fcd	-1.7607361
49	0xbfb585d7	-1.418147
50	0xbf853b37	-1.0408696
51	0xbfdc403a	-1.72071
52	0xbf2b1050	-0.66821766
53	0x3f6a593a	0.915424
54	0xc01f707e	-2.491241
55	0xc004a634	-2.0726442
56	0x3fe62dda	1.7982743
57	0xc03e6ded	-2.9754593
58	0xbdc47aec	-0.09593758
59	0xbf608ce5	-0.8771499
60	0xbe8f6ab8	-0.28011107
61	0xbf17ea63	-0.5934202
62	0xbe463d70	-0.19359374
63	0x3ff7e868	1.93678
64	0xc0f65509	-7.6978803
65	0x401c3713	2.4408615
66	0xc0eb7e8a	-7.3591967
67	0x408cbea7	4.398273
68	0x40b14c83	5.54059
69	0x3f3d610e	0.7397622
70	0xc0f9e28f	-7.808906
71	0x405fa0bd	3.4941857
72	0xc0602589	-3.502291
73	0xbf9c79d3	-1.2224678
74	0x40bb9890	5.8623734
75	0x3f953f39	1.1659919
76	0x3e7134c1	0.2355528
77	0xc04ef521	-3.2337115
78	0x3fe759be	1.8074262
79	0x3eef327a	0.46718198
80	0x3e38e493	0.18055944
81	0xc016d035	-2.356458
82	0x3e3e6b2c	0.1859557
83	0xbfeba390	-1.840929
84	0x3f1a9eb0	0.6039839
85	0xbfdc5228	-1.7212572
86	0xc017cb8f	-2.3717992
87	0xbfb4b77f	-1.4118499
88	0x3f82be1c	1.0214267
89	0xc03f92a9	-2.9933264
90	0xc0546b6f	-3.3190572
91	0x402bf361	2.6867297
92	0x3d4b82ec	0.049685404
93	0x3fe79b03	1.8094181
94	0xc03be93f	-2.9361112
95	0x402ad742	2.6693883
96	0xbf8926cc	-1.0714965
97	0xbe8a51f9	-0.27015665
98	0xbf86d0b9	-1.0532447
99	0xbe1618d1	-0.14657904
100	0x3f2708e0	0.6524792
101	0xbfb89c1d	-1.4422642
102	0xbf9bba17	-1.2166165
103	0x3ed2d07e	0.41174692
104	0x3eebc32c	0.46047342
105	0xc0036b46	-2.0534225
106	0xbf6be271	-0.921424
107	0x3f8ab01e	1.0834997
108	0xc0189aa0	-2.3844376
109	0x4036695b	2.8501804
110	0xc082d764	-4.088793
111	0x3fe597a4	1.7936902
112	0x3eded5b5	0.4352242
113	0xc0251d5a	-2.5799165
114	0x3e9e86aa	0.30962116
115	0xbfeb2b3b	-1.8372568
116	0x3dcd0774	0.10011187
117	0xc025c304	-2.5900278
118	0x3fbbe7b5	1.4680086
119	0xbe1418b8	-0.14462554
120	0x3fb60524	1.4220319
121	0x402efe47	2.7342699
122	0x3f6ce194	0.92531705
123	0x4016e01d	2.3574288
124	0xc000fe78	-2.0155315
125	0x3d02f4f3	0.031971883
126	0xc00cf403	-2.2023933
127	0xc022f34a	-2.5460992
128	0xbf183124	-0.5944998
129	0xbe4ce93e	-0.2001085
130	0xbf771697	-0.96518844
131	0xbf988824	-1.1916547
132	0x3e873873	0.26410255
133	0xbfacf1e4	-1.3511319
134	0x3f245da7	0.642054
135	0xbf81c383	-1.013779
136	0x4009398c	2.1441374
137	0xc0001141	-2.001053
138	0x3f5e3b39	0.86809117
139	0x3ee2c720	0.44292545
140	0xc041a141	-3.0254672
141	0x3fe0a85c	1.7551379
142	0xbfb34bc9	-1.4007503
143	0xbedca6c9	-0.43095997
144	0xbe0d7dc3	-0.13817506
145	0xc0363cf2	-2.8474698
146	0x3ff3fd7f	1.9061736
147	0x3ff2711f	1.8940772
148	0xbf9458f6	-1.1589649
149	0xc0268246	-2.6017013
150	0x3fc6ea9e	1.554035
151	0xbf61cc4b	-0.8820235
152	0xbf5e64d7	-0.8687262
153	0x3f9fe0da	1.2490494
154	0x3f22e289	0.63626915
155	0x40aa63ba	5.3246737
156	0xc0624108	-3.5352192
157	0x3fd759d0	1.6824284
158	0xc08c34e8	-4.3814583
159	0xbfb92ea3	-1.4467357
160	0xbf9f85d0	-1.2462711
161	0xc0420c8e	-3.0320163
162	0xbf8e8c04	-1.1136479
163	0xbf2e5b54	-0.68108106
164	0xbebf91f6	-0.37416047
165	0xbfa1fe9c	-1.2655826
166	0x3feac5cd	1.8341614
167	0xbf9718bb	-1.1804422
168	0x3d2bbbfe	0.04192733
169	0xbf86e121	-1.0537454
170	0xbdaa0ee0	-0.083036184
171	0x4023807b	2.5547168
172	0xc0ac1d17	-5.378551
173	0x4010fe3c	2.2655172
174	0xc0938948	-4.610508
175	0x3f8bbd2e	1.0917108
176	0xc1146050	-9.273514
177	0x40490930	3.1411858
178	0xc0ddc720	-6.9305573
179	0x403e8408	2.9768085
180	0x40966ff8	4.701168
181	0x3fb86367	1.4405335
182	0xc0a218e5	-5.065539
183	0x4085e5c9	4.1843
184	0xc0a688d2	-5.2042017
185	0xbfb0ed34	-1.3822389
186	0x40a76944	5.2316
187	0xc04f2dcd	-3.2371705
188	0x3fbbb88b	1.4665693
189	0xbf975a91	-1.1824514
190	0x402272fc	2.538268
191	0xc022a1a7	-2.5411165
192	0xbfadddfe	-1.3583372
193	0x3ecad516	0.39615697
194	0xbf1414f4	-0.5784447
195	0x4032ce21	2.793831
196	0xbf8af1b4	-1.0855012
197	0xc021dc99	-2.5290892
198	0xc02859e2	-2.630486
199	0x4016332e	2.3468738
200	0x3dcbc93a	0.0995049
201	0x3fa3be47	1.2792443
202	0xbee0838e	-0.43850368
203	0x3ffb9a7f	1.9656523
204	0xc03c7370	-2.9445457
205	0x4043b51a	3.0579286
206	0xc0458de8	-3.0867863
207	0xbea83789	-0.3285487
208	0x3ea43a2a	0.32075626
209	0xbeed2662	-0.46318346
210	0x3d1d28cb	0.03836898
211	0x401affed	2.4218705
212	0xbe9e78b5	-0.30951467
213	0xbf99cea9	-1.2016193
214	0x3f5e2b40	0.86784744
215	0x3f61bc29	0.88177735
216	0x3fe03ac9	1.751794
217	0x3f442ab4	0.7662766
218	0x3b948ac9	0.004533146
219	0xbda580c9	-0.080812044
220	0xc04422c8	-3.0646229
221	0x3fe9f305	1.8277289
222	0xbfaa55b9	-1.330741
223	0xbd9d1e1a	-0.07671757
224	0xbe900ee9	-0.28136376
225	0x3ec08e4c	0.37608564
226	0xbf24dc21	-0.6439839
227	0x3f9c2792	1.2199576
228	0xbf46e074	-0.7768624
229	0x3f711564	0.94173265
230	0xbbf6d4f5	-0.0075327107
231	0x4033f4e5	2.8118222
232	0xbff0e454	-1.881968
233	0xbf7ae814	-0.98010373
234	0x4038a467	2.8850343
235	0xbfc08427	-1.504033
236	0x4043d53d	3.05989
237	0xbf86de87	-1.053666
238	0x3f8dc30a	1.1075146
239	0xc021e212	-2.5294232
240	0x3f9794ee	1.1842325
241	0xc037c08b	-2.871127
242	0x3ee195ab	0.440595
243	0x3fdfaf53	1.747538
244	0xbef4a613	-0.47782955
245	0xbf893025	-1.0717818
246	0x3fc9c4d2	1.576319
247	0xbe2562b2	-0.1615093
248	0x3f6ee555	0.9331868
249	0x3f921d73	1.1415237
250	0x3fe11b6a	1.7586491
251	0x400d4602	2.207398
252	0xc0430580	-3.0472107
253	0x3feca0c5	1.8486563
254	0xc01e4cd5	-2.4734395
255	0xbec5cf59	-0.38634756

Add_2;convolution_4;depthwise;Const_10 f4 [16]
0	0xbea338a1	-0.31879142
1	0x3e4a0212	0.19727352
2	0x3d840dca	0.064479426
3	0x3ea560d7	0.32300445
4	0x3e292d70	0.1652124
5	0x3e0abe55	0.13549168
6	0x3da5db82	0.080985084
7	0xbe401010	-0.18756127
8	0xbd4d9b46	-0.05019691
9	0x3e3f0881	0.18655588
10	0x3e939b8d	0.28829613
11	0x3e76f98e	0.24118635
12	0x3e22cea0	0.15899134
13	0x3e0aa52e	0.13539574
14	0xbdf6c949	-0.12050111
15	0xbd34b3af	-0.044116672

Add_4;convolution_4;depthwise_1;Const_14 f4 [16]
0	0xbe536044	-0.20642191
1	0x3dfd7a86	0.12376885
2	0x3e36e5dd	0.17861123
3	0xbe552e56	-0.20818457
4	0x3c948bf9	0.01813315
5	0x3e206624	0.15663964
6	0xbe6e29ca	-0.23258129
7	0xbe9d8164	-0.3076278
8	0xbe070528	-0.1318556
9	0x3e512be9	0.20426907
10	0xbdca4efb	-0.098783456
11	0xbe8bdb7e	-0.27315897
12	0xbe2acac2	-0.16678908
13	0xbe51b06b	-0.20477454
14	0x3d853afb	0.0650539
15	0xbdbffd20	-0.09374452

Add_6;convolution_4;depthwise_2;Const_18 f4 [16]
0	0x3cdd6a8e	0.027028348
1	0x3dc76b80	0.09737301
2	0x3d19ad89	0.03751901
3	0xbe59e2e3	-0.21277957
4	0xbe27a21b	-0.16370432
5	0x3c49bcf4	0.012313116
6	0xbe0a4c83	-0.1350575
7	0x3cf35949	0.02970566
8	0xbe7aa4fb	-0.24476998
9	0x3e662530	0.22475123
10	0x3e94d7bb	0.2907084
11	0xbe0423cb	-0.12904279
12	0xbe9f136b	-0.31069502
13	0x3ea2bb56	0.3178355
14	0xbd1b2951	-0.0378812
15	0xbd7df8c0	-0.062004805
